results/original_split/best_gnn_model.pt (torch, 926929 bytes, 29 tensors)

ligandEncoder.convLayers.0.linear.weight f4 [128, 19]
00000000: d074 1680 34ac 0b01 5f3d 0d81 36c6 b081
00000010: 6a98 3100 86aa c280 fc07 a601 a85d 1081
00000020: c607 0600 bb6d be01 6cf4 7301 32a4 9681
00000030: 0857 c200 d000 9980 f0d9 6381 145d 5981
00000040: 8f63 7181 236b 3d81 38a6 7381 9ccd 3881
00000050: 5936 b801 9a35 7481 f8e9 bb01 98ad 3f00
00000060: 17bf 3e00 6707 ce80 2f6c 8d01 9427 c580
00000070: c114 8080 7802 5501 0876 2081 5039 1800
00000080: 1cee 4400 8f9d fd80 e226 9481 93e9 0601
00000090: d575 0c00 b1c1 2600 e6dd bc81 176a 7980
000000a0: c204 3d81 da10 fc00 a5ad 4001 b83f 4680
000000b0: 3f57 c200 acef 3a00 a5a7 4381 c996 a080
000000c0: 3b74 0901 55b2 8681 b697 4201 6b76 5e80
000000d0: ffc6 6680 cc38 2a80 dc6d 0f81 fac2 0f80
000000e0: ac96 8081 9c06 5e00 6799 0481 4692 9581
000000f0: 8474 4d81 2c7d 6f01 a5f7 0200 28b5 7001
00000100: f65f 9f00 0361 4e81 8da7 0000 216f 1a01
00000110: 80e9 9f80 e637 2a01 480b 7881 eac3 2800
00000120: b74f ee00 e2c9 b401 843c a801 9539 6c01
00000130: 63e4 a401 5237 4981 3a06 2001 36e1 9d01
00000140: 8ff2 1001 24c9 8f81 a18c 1b81 b845 9880
00000150: ff70 0c00 e0db 6b80 46aa b280 d17b a581
00000160: c0fc 6881 d46d 5e01 6b79 4b81 3ef3 4e01
00000170: 1a61 ca00 aaaa bb81 82bc 0e81 c4e1 0a01
00000180: 8ef8 1300 364d 0700 cee7 5b80 e658 3a80
00000190: b2ac 1f81 2813 ac01 f265 9f81 145a 0681
000001a0: e1ae a100 61e9 2580 6e50 6180 b4a0 d280
000001b0: e011 7181 b565 9180 7c46 8e01 cc46 3901
000001c0: 5081 7480 076e 3201 8d46 7e01 8237 1b80
000001d0: 14e7 ad81 7d80 2a81 f37f 9d81 97d8 5e00
000001e0: 8c38 ae01 b9d2 7201 aec7 8c01 70b2 1a00
000001f0: c251 b680 168b 5f01 0038 2b01 6cf2 c800
00000200: 7273 6381 ea90 5c01 26d8 6e00 e3e0 6901
00000210: eff4 4601 f2b7 b880 87ff b601 db08 2180
00000220: 9272 1901 3e7f 8601 047c 6f01 0e7e ae00
00000230: 3818 a801 ceb8 b901 40ed 0300 5cdd 8081
00000240: 5232 3500 3f85 0200 b122 6c01 0915 0b80
00000250: 6032 5c00 eb30 8e01 861f 0d00 9e66 0100
00000260: 360c 3c80 1a8b ba01 b627 5301 3a2d 9201
00000270: 60f2 e780 17d1 ab01 b621 0601 e9f2 0f01
00000280: 8c2f 1701 d088 2f00 2650 2c81 c481 3e01
00000290: 2a7b a581 54c6 9780 8e03 b280 c1ac 7981
000002a0: 444e 7b81 918d 5a01 fe25 ad01 b3ef 4b81
000002b0: 56ea 4580 2bd8 8c81 c76e 0301 ec23 8280
000002c0: 7719 4300 42de 5201 843c 5f80 a49f c300
000002d0: cc7f 1a01 bd23 a801 a7e6 6681 d43a a081
000002e0: c7a2 9a81 c7a7 a300 ed2e 0d00 b058 6800
000002f0: 9b41 2101 774d 4181 a86e 8381 5009 9401
00000300: 80c2 2880 085f 8081 24a4 5f01 5aa9 0800
00000310: 9b8b a981 9b77 3100 d0b4 d000 90d4 a600
00000320: eec1 9580 6f29 1981 203c 7b81 dc04 8b81
00000330: 0be2 6680 1e94 9101 7f0a 8201 90cd 7f00
00000340: 08a7 1581 8d9d eb80 f613 a081 3b1f 5781
00000350: d6b4 4201 7e6e 2381 91a8 5881 ad39 9200
00000360: aa53 8201 5c38 8c80 001a 5981 cee5 8b81
00000370: 44b3 f000 50d0 9e81 30ad 0500 6ef0 2e01
00000380: 831e 3781 c898 8001 f527 8d81 4a50 7101
00000390: faad 4381 3fdd 9501 1765 8b01 1aa8 6181
000003a0: c724 e280 f05b 8900 be62 0081 167e fc00
000003b0: 8656 4b81 b888 1081 07f3 8081 e481 7500
000003c0: 0ab2 6b00 fe5b 7581 124c 1281 ecc0 7801
000003d0: ffa7 8f01 d49f 0581 fafe 7c81 bd2b b981
000003e0: 54cc 9801 369e 2101 7ac2 b701 fbb3 5981
000003f0: 8a3c cb00 9f1f bf81 43a7 8f80 d8ec 1781
-2.062285e-39 2.5653818e-38 -2.5941642e-38 -6.493661e-38 4.554615e-39 -1.7877259e-38 6.0990226e-38 -2.6515818e-38
5.53802e-40 6.995243e-38 4.4807415e-38 -5.5336906e-38 1.7847307e-38 -1.4051122e-38 -4.1849678e-38 -3.9923386e-38
-4.433614e-38 -3.4790684e-38 -4.4751307e-38 -3.394298e-38 6.766891e-38 -4.485418e-38 6.902868e-38 5.84791e-39
5.762351e-39 -1.8920768e-38 5.1950456e-38 -1.810579e-38 -1.1762389e-38 3.9123693e-38 -2.9472042e-38 2.224612e-39
6.330231e-39 -2.3290902e-38 -5.442241e-38 2.4779494e-38 1.144296e-39 3.559232e-39 -6.93787e-38 -1.1150153e-38
-3.471723e-38 2.314859e-38 3.5389414e-38 -6.451343e-39 1.7847384e-38 5.412437e-39 -3.5936123e-38 -1.4747771e-38
2.5246317e-38 -4.947972e-38 3.574102e-38 -8.675017e-39 -9.438607e-39 -3.877466e-39 -2.6343772e-38 -1.447477e-39
-4.723598e-38 8.634908e-39 -2.4354632e-38 -5.494385e-38 -3.773615e-38 4.3987174e-38 2.72509e-40 4.421101e-38
1.4636268e-38 -3.7905827e-38 6.0106e-41 2.8365064e-38 -1.4685608e-38 3.1264174e-38 -4.55585e-38 3.7437e-39
2.1885444e-38 6.6411245e-38 6.180029e-38 4.3387667e-38 6.0571804e-38 -3.695756e-38 2.9391826e-38 5.7995853e-38
2.662265e-38 -5.2818526e-38 -2.85699e-38 -1.3984006e-38 1.142561e-39 -9.905274e-39 -1.6407801e-38 -6.0789095e-38
-4.279301e-38 4.0853758e-38 -3.7372325e-38 3.8010742e-38 1.8585604e-38 -6.893784e-38 -2.621653e-38 2.5508576e-38
1.834039e-39 6.70547e-40 -8.440186e-39 -5.35835e-39 -2.932759e-38 6.321031e-38 -5.855366e-38 -2.467654e-38
1.484825e-38 -3.481634e-39 -8.936896e-39 -1.9343104e-38 -4.4277534e-38 -1.3352633e-38 5.22637e-38 3.4029928e-38
-1.0699306e-38 3.2772377e-38 4.670305e-38 -2.499471e-39 -6.3881744e-38 -3.1316255e-38 -5.785629e-38 8.710234e-39
6.3998646e-38 4.4599566e-38 5.1714404e-38 2.451734e-39 -1.674339e-38 4.105842e-38 3.1447918e-38 1.8454064e-38
-4.1776143e-38 4.051159e-38 1.0179444e-38 4.295669e-38 3.6542588e-38 -1.6963718e-38 6.7222905e-38 -3.033748e-39
2.8183862e-38 4.940641e-38 4.3986344e-38 1.6024596e-38 6.1748206e-38 6.822345e-38 3.60616e-40 -4.733741e-38
4.885333e-39 2.3147e-40 4.3371244e-38 -1.017736e-39 8.466937e-39 5.2232756e-38 1.20517e-39 1.28648e-40
-5.51451e-39 6.852521e-38 3.878307e-38 5.3696827e-38 -2.1300947e-38 6.311551e-38 2.46361e-38 2.643923e-38
2.7768433e-38 4.365347e-39 -3.1648914e-38 3.499059e-38 -6.078816e-38 -1.3938307e-38 -1.6347993e-38 -4.5858022e-38
-4.6157572e-38 4.0141845e-38 6.360468e-38 -3.7457187e-38 -6.420713e-39 -5.1738064e-38 2.414038e-38 -1.1951501e-38
6.162113e-39 3.873037e-38 -8.746081e-39 1.796519e-38 2.8377023e-38 6.1764735e-38 -4.2409813e-38 -5.885913e-38
-5.680424e-38 1.5029373e-38 1.210695e-39 9.582707e-39 2.96181e-38 -3.550408e-38 -4.8280584e-38 5.4379977e-38
-3.743193e-39 -4.7156137e-38 4.1076396e-38 7.95436e-40 -6.228112e-38 4.542846e-39 1.9166647e-38 1.5320945e-38
-1.3753058e-38 -2.813139e-38 -4.6144557e-38 -5.106751e-38 -9.44831e-39 5.3477126e-38 4.776952e-38 1.173685e-38
-2.7486817e-38 -2.163786e-38 -5.880336e-38 -3.951167e-38 3.5761916e-38 -3.0017646e-38 -3.9793875e-38 1.3428673e-38
4.787451e-38 -1.2877187e-38 -3.987526e-38 -5.139029e-38 2.2104827e-38 -5.833895e-38 5.21305e-40 3.2131253e-38
-3.3633683e-38 4.7239004e-38 -5.1852555e-38 4.4322314e-38 -3.5940666e-38 5.505143e-38 5.120559e-38 -4.144658e-38
-2.0768015e-38 1.2614444e-38 -2.358073e-38 2.3187776e-38 -3.734729e-38 -2.6546714e-38 -4.73685e-38 1.0791349e-38
9.890266e-39 -4.5065394e-38 -2.6870543e-38 4.568882e-38 5.2770966e-38 -2.4542913e-38 -4.6468027e-38 -6.802103e-38
5.612918e-38 2.968454e-38 6.7502643e-38 -3.9985735e-38 1.8664323e-38 -7.0207693e-38 -1.3192478e-38 -2.7904247e-38

ligandEncoder.convLayers.0.linear.bias f4 [128]
00000000: 9c63 bf81 1e16 9e01 4c98 4f80 6009 5081
00000010: 8a07 8701 d2f8 9681 4367 8400 b21b 0000
00000020: 7c97 8f01 0095 4181 0c8e fb80 6787 4500
00000030: c208 0881 25ec 5f81 3eb1 6681 cc76 f900
00000040: 3619 9000 fc7b b201 6a29 af81 a660 5181
00000050: 8e16 a380 ff9d b681 4cbd a181 586d 9381
00000060: 689f ab01 b568 7b00 cec6 7281 8ddf 9000
00000070: 6ec0 f280 2588 e000 0179 a181 8f1a 7380
00000080: 5c3b a501 96e5 5b01 42c6 0581 e425 7981
00000090: 0c73 8a81 dcca 6880 48ad 2801 211e ac80
000000a0: 0483 b300 e294 4f01 1a50 7481 fa4d 2d01
000000b0: 9c51 a281 a026 2c80 cf7b 8380 1779 2d00
000000c0: ab06 8180 002c 2781 7a4a 2101 083c 0280
000000d0: 466d b781 36e9 7900 4af9 5101 f691 6181
000000e0: d450 4680 a868 3381 587d 7700 1c66 f300
000000f0: 0e97 bd01 fb47 9481 cccf 3b81 b0d7 3b80
00000100: 466e a881 68bc 1901 88d4 9a81 a45e 3281
00000110: c235 2601 7bfa 9980 5c2b 8381 ce26 6f81
00000120: 5fdb 1f00 4877 0881 0da3 0081 502e b200
00000130: a125 8401 dbdb a181 9941 6980 ab2f 5381
00000140: c470 3a80 1308 1300 1285 4181 4282 5201
00000150: 553f 6c81 b294 a701 d076 3201 a829 4601
00000160: b5b9 8281 e916 7a81 5ab2 b281 825e 5d81
00000170: 68fb 8901 acb1 ac81 9bbb 1e01 4d3a 0c81
00000180: 7ca0 5381 c0a4 0900 65ec ac80 d533 8601
00000190: 84f2 e900 c813 d200 3975 ce80 4679 9381
000001a0: 332e 8500 48ab 1d01 a6b3 8b81 fae1 8d81
000001b0: 8c95 b000 aed8 af81 94e0 fa80 9275 5581
000001c0: c1b2 fe80 dc20 1181 7306 2400 8846 0280
000001d0: 7d22 0280 30c2 a501 7c10 5880 de2e 3901
000001e0: 1e52 9d01 e309 a081 e82d 4a01 9abe f900
000001f0: 996b 5200 fcd2 ba01 1c10 8581 042f 7681
-7.030525e-38 5.807177e-38 -7.309638e-39 -3.8210293e-38 4.9601986e-38 -5.545834e-38 1.2159329e-38 9.935e-42
5.2747273e-38 -3.5555404e-38 -2.3101666e-38 6.385222e-39 -2.4985538e-38 -4.1128057e-38 -4.2371493e-38 2.2909655e-38
1.3233355e-38 6.556478e-38 -6.4344274e-38 -3.845658e-38 -1.4977277e-38 -6.7082954e-38 -5.941369e-38 -5.415617e-38
6.3044216e-38 1.1333328e-38 -4.4591016e-38 1.3304506e-38 -2.2293221e-38 2.061999e-38 -5.931569e-38 -1.057061e-38
6.0696604e-38 4.0388667e-38 -2.4570485e-38 -4.5761262e-38 -5.085828e-38 -9.623664e-39 3.098105e-38 -1.5806514e-38
1.6485553e-38 3.8126714e-38 -4.4873192e-38 3.1831027e-38 -5.9626505e-38 -4.054618e-39 -1.2074864e-38 4.176036e-39
-1.1849171e-38 -3.0704624e-38 2.9624464e-38 -2.05206e-40 -6.7380383e-38 1.1195755e-38 3.8566094e-38 -4.1430695e-38
-6.45748e-39 -3.2952195e-38 1.0973389e-38 2.2352656e-38 6.964439e-38 -5.44699e-38 -3.4495563e-38 -5.495668e-39
-6.187169e-38 2.8236837e-38 -5.6875633e-38 -3.2761338e-38 3.0527954e-38 -1.4140686e-38 -4.818402e-38 -4.3925208e-38
2.925596e-39 -2.5064835e-38 -2.362687e-38 1.6363332e-38 4.8543137e-38 -5.9457537e-38 -9.666259e-39 -3.878878e-38
-5.366911e-39 1.747771e-39 -3.5543975e-38 3.8664364e-38 -4.3391793e-38 6.155948e-38 3.277868e-38 3.6396743e-38
-4.8020935e-38 -4.5934185e-38 -6.5642795e-38 -4.0659095e-38 5.06866e-38 -6.343777e-38 2.9154617e-38 -2.5755768e-38
-3.886972e-38 8.8562e-40 -1.5880508e-38 4.92982e-38 2.1484669e-38 1.929255e-38 -1.8960164e-38 -5.417329e-38
1.2230694e-38 2.8959234e-38 -5.131832e-38 -5.211948e-38 1.6216695e-38 -6.459577e-38 -2.3039437e-38 -3.9206274e-38
-2.3390341e-38 -2.665587e-38 3.308391e-39 -2.08973e-40 -1.96043e-40 6.0890073e-38 -8.087437e-39 3.401276e-38
5.7790524e-38 -5.8788904e-38 3.7134477e-38 2.2935414e-38 7.56911e-39 6.8628357e-38 -4.88796e-38 -4.5216796e-38

ligandEncoder.convLayers.0.edgeLinear.weight f4 [128, 6]
00000000: c7c6 7d01 746b 7800 6e05 5980 1a6e 8f01
00000010: c2a6 4081 ac5a 9b01 641a ac00 6049 2501
00000020: 9331 ad01 6a89 8401 cb2f 8f00 b654 6581
00000030: 280a 2501 c83a 1081 bacc a980 f98f 8c00
00000040: 4368 c600 2a90 5800 6805 0101 b444 0f01
00000050: 5f2a 6a81 cfdc a200 1db4 5800 8e2b 8600
00000060: 28fa a580 82ab 0080 3989 2f00 085d 2c81
00000070: 9115 f880 af20 fe00 9454 3500 30a5 4c81
00000080: 6562 4501 18cf 0180 2cea 5880 9132 8400
00000090: 30f0 ca00 c40d 4880 b389 1b00 ef3b 9001
000000a0: 48b5 bf00 2150 3a01 b14e af01 fa3d 8401
000000b0: 9857 b481 8042 8281 8ece 1f01 34b8 4501
000000c0: cc60 4c01 a40f 1580 ce89 ec00 6d07 8280
000000d0: f3d8 8601 e564 1f81 f49a 2080 0e47 af81
000000e0: 788f 7f81 fdd9 3301 d464 a900 fb12 1801
000000f0: 2e93 f700 c828 4b80 4c19 4180 726d b700
00000100: fa1d b901 b6dd bf01 0f3f 4200 8544 6580
00000110: d7d5 3b80 4fe8 f400 a768 8b81 9dd6 3980
00000120: 26f7 6b81 c56d af00 e2f6 2481 b8ee 8700
00000130: 9901 0201 2daf 8b80 0cf6 8f00 b956 9701
00000140: d90d 8f00 9d7a 2081 9b0b 2f01 84af 9681
00000150: e0b9 9881 682f f580 fbab 7600 b630 7380
00000160: 6cc4 4480 f401 9481 336e 8a00 66f1 3480
00000170: 46ec 9f01 6eb3 5e81 f2c0 4100 f6f8 7b01
00000180: 1cdc 9b01 cc95 bb80 22dd 2f81 7ec3 0180
00000190: f8e4 2a80 6858 de80 f3da a481 9102 5500
000001a0: 7544 7d01 762f 2781 7eb0 3000 6094 6e81
000001b0: 525e 4c00 67e8 0481 bc0b 5e81 34c2 2f81
000001c0: 2bca 8e00 2918 9a01 32c4 8001 d38f 7180
000001d0: 4459 0080 0acd 2201 c0a4 9881 2cf1 6201
000001e0: aa11 1501 f839 6e81 e021 5f01 8400 8301
000001f0: 44a4 6201 b4d8 b081 022e 3181 c041 0181
00000200: 7278 8980 1823 dd80 9a1d 5680 b57e 6e01
00000210: d84f 0000 864c 0481 d81e 5d80 f88f 3101
00000220: fab4 5601 8bd9 2f00 527e ff80 2e21 8a81
00000230: 9c9b 1700 cc76 3301 6d24 6980 5bc4 4200
00000240: c874 b281 5b5c 6480 2216 2081 0a60 9a81
00000250: 4fb5 8080 79e2 6d01 72c7 5a81 bdf4 3d00
00000260: 9467 1c01 b8c0 6a81 00a9 6081 80ef 4500
00000270: 254b 3700 9572 be80 3cd6 4f81 a1d1 bf80
00000280: f952 8a80 c736 2c81 b0c5 a881 59e5 bf80
00000290: d81c 0001 80e8 3380 370f 0c01 4060 1700
000002a0: 44f6 bb81 b8f7 cb80 0826 bd80 81bd 3c80
000002b0: 6c27 3200 6f64 b000 8011 e180 9349 a401
000002c0: 20d6 1f81 4403 7380 21c0 9301 9c02 2701
000002d0: 546d 3101 9e8d 9f80 762f 4d01 c43c aa80
000002e0: 5c0d 7801 c984 8601 6776 ac81 5ae2 7781
000002f0: dfe9 fe00 a74f 9e81 a206 0501 a444 5800
00000300: d173 3581 1d5e 2f81 77ac 6600 3582 9c81
00000310: 5e16 9801 6757 9381 f50b 8c80 12ae 6b00
00000320: 9467 ae01 0149 b881 dd0b 5501 6e06 0c81
00000330: 220b 8381 5d84 b781 ce10 9500 86f4 4180
00000340: fcda 2c00 024a 1080 ef17 d580 d440 8380
00000350: d1a6 4781 58b8 d580 6af7 d900 80ec b001
00000360: dc0a 6f01 d6e7 1181 0b93 a381 9295 5b80
00000370: 443b ae01 1eb0 6480 6900 1080 f818 c300
00000380: 3a0e a200 64b8 6f01 52d5 5700 03a8 9a01
00000390: fc66 f680 18ce ec00 43c5 2f01 bb31 b901
000003a0: 8a66 9001 450e ce00 71af c000 b54e 8e01
000003b0: 846f 2701 a6ae 5801 8e28 2101 10f5 7380
000003c0: a85c b400 ae3c 6000 d243 ec80 a64d 1501
000003d0: c3b9 3b00 ea26 0000 b5ce 0a80 c909 ad80
000003e0: a609 9581 4f2d b080 9654 6201 92da 3381
000003f0: fae1 7700 f8ba 6b01 ad32 af01 443a 1181
4.6611377e-38 1.1058806e-38 -8.175307e-39 5.268789e-38 -3.5384473e-38 5.7068115e-38 1.5805173e-38 3.0358358e-38
6.36213e-38 4.868632e-38 1.3149621e-38 -4.2121434e-38 3.0313e-38 -2.6490796e-38 -1.5593641e-38 1.2908617e-38
1.822083e-38 8.13324e-39 2.3697437e-38 2.6314244e-38 -4.3009412e-38 1.4956562e-38 8.146136e-39 1.2321581e-38
-1.5242596e-38 -6.1525e-41 4.365495e-39 -3.1658157e-38 -2.278294e-38 2.333794e-38 4.897622e-39 -3.75874e-38
3.625378e-38 -1.66127e-40 -8.165529e-39 1.2140425e-38 1.8636933e-38 -6.617094e-39 2.528956e-39 5.2983246e-38
1.7605611e-38 3.4220294e-38 6.4397764e-38 4.8578074e-38 -6.624725e-38 -4.784988e-38 2.9351883e-38 3.6315345e-38
3.753833e-38 -1.934156e-39 2.1722612e-38 -1.1941278e-38 4.953513e-38 -2.9276076e-38 -2.994323e-39 -6.4386806e-38
-4.6939037e-38 3.3033507e-38 1.5556369e-38 2.793161e-38 2.2736166e-38 -6.902292e-39 -5.978382e-39 1.6845157e-38
6.800128e-38 7.048046e-38 6.083764e-39 -9.299965e-39 -5.495006e-39 2.2491198e-38 -5.1210705e-38 -5.311612e-39
-4.3340004e-38 1.611059e-38 -3.0299172e-38 1.2483428e-38 2.3878375e-38 -1.2827975e-38 1.3220741e-38 5.559308e-38
1.3137444e-38 -2.947533e-38 3.215075e-38 -5.535315e-38 -5.61027e-38 -2.2516703e-38 1.0898284e-38 -1.0578556e-38
-6.315277e-39 -5.4369416e-38 1.271283e-38 -4.862043e-39 5.874641e-38 -4.0903695e-38 6.038523e-39 4.628004e-38
5.725385e-38 -1.7226975e-38 -3.230108e-38 -1.61965e-40 -3.93923e-39 -2.0419194e-38 -6.055826e-38 7.806938e-39
4.6517877e-38 -3.0707107e-38 4.471417e-39 -4.382015e-38 7.013333e-39 -2.4411311e-38 -4.078338e-38 -3.2281758e-38
1.3113165e-38 5.6605334e-38 4.73013e-38 -1.0429005e-38 -3.2022e-41 2.990181e-38 -5.6072386e-38 4.1682677e-38
2.737965e-38 -4.3755287e-38 4.0982935e-38 4.812254e-38 4.16275e-38 -6.4963143e-38 -3.2542775e-38 -2.374073e-38
-1.262467e-38 -2.0308234e-38 -7.908472e-39 4.3804604e-38 2.8643e-41 -2.4299474e-38 -8.551766e-39 3.2613058e-38
3.9435437e-38 4.394308e-39 -2.3463367e-38 -5.0740804e-38 2.168039e-39 3.296234e-38 -9.655794e-39 6.131582e-39
-6.5554446e-38 -9.21668e-39 -2.9403238e-38 -5.6708475e-38 -1.1819985e-38 4.369251e-38 -4.018337e-38 5.689761e-39
2.8726988e-38 -4.311728e-38 -4.1263554e-38 6.422566e-39 5.077909e-39 -1.7489849e-38 -3.81736e-38 -1.761578e-38
-1.2703063e-38 -3.1630711e-38 -6.199712e-38 -1.7622854e-38 2.353058e-38 -4.767016e-39 2.5724855e-38 2.146744e-39
-6.9046325e-38 -1.873147e-38 -1.7370552e-38 -5.578111e-39 4.605917e-39 1.6199076e-38 -2.0669264e-38 6.034966e-38
-2.9357315e-38 -1.0562254e-38 5.4274963e-38 3.0674928e-38 3.2588205e-38 -1.4652647e-38 3.7686605e-38 -1.5633833e-38
4.555999e-38 4.9414363e-38 -6.335272e-38 -4.5529134e-38 2.3410113e-38 -5.815433e-38 2.4433e-38 8.106147e-39
-3.3327544e-38 -3.2209947e-38 9.42909e-39 -5.749219e-38 5.5868077e-38 -5.412469e-38 -1.2861259e-38 9.888843e-39
6.406613e-38 -6.769568e-38 3.9130433e-38 -2.5718552e-38 -4.8137775e-38 -6.7413515e-38 1.3689517e-38 -6.057026e-39
4.119319e-39 -1.495917e-39 -1.9569546e-38 -1.2053706e-38 -3.6670212e-38 -1.9627091e-38 2.0017058e-38 6.499155e-38
4.3905158e-38 -2.6798628e-38 -6.008774e-38 -8.410686e-39 6.400255e-38 -9.246729e-39 -1.469515e-39 1.7916879e-38
1.4882454e-38 4.402966e-38 8.066213e-39 5.681175e-38 -2.2628476e-38 2.174711e-38 3.2283952e-38 6.8029627e-38
5.304438e-38 1.8923231e-38 1.7695352e-38 5.22755e-38 3.0753064e-38 3.9798238e-38 2.9600126e-38 -1.0648994e-38
1.6563628e-38 8.837975e-39 -2.1697506e-38 2.7422688e-38 5.484933e-39 1.396e-41 -9.92507e-40 -1.5891051e-38
-5.47478e-38 -1.6179301e-38 4.1570332e-38 -3.3033924e-38 1.1009489e-38 4.3296827e-38 6.4357563e-38 -2.6674097e-38

ligandEncoder.convLayers.0.edgeLinear.bias f4 [128]
00000000: 1c9b 3981 57e7 1c80 c46d fc80 1e9e 5b81
00000010: 0c2f 4681 bcba 4380 a3a6 8901 c6b4 8201
00000020: a68e 1d01 6aaa ba81 8a37 6401 679f 9201
00000030: 038b 6f81 979a c200 88c3 ed80 b090 4601
00000040: c89b 7480 77fb a301 9dc0 6c81 dbf8 da00
00000050: 196a 9900 c2e1 b401 4c64 ab01 38ae 7a00
00000060: ba47 5e81 f7fd 5d00 f70c 5980 048a 5400
00000070: 925d 5a81 a04f 7881 76c1 7801 6bd8 9f81
00000080: b9ef 6580 da01 4b00 689c 9001 2a66 1201
00000090: 3c61 4d01 ba79 d080 d7d1 4101 109e 8481
000000a0: e172 3901 9af2 6381 0070 1180 bab8 8b01
000000b0: 175b 7101 250a 8f00 97e2 4600 2197 2001
000000c0: d381 c580 5ae5 e180 fd17 bf81 bbdf 3b00
000000d0: 120b 8081 04b5 1d01 aa97 9500 0095 4001
000000e0: f6df bb00 4898 bb81 7a45 9101 6636 3280
000000f0: dcce a001 5f09 cf80 f052 1b01 9cfa 5801
00000100: 91bd 0f00 d22f 2501 50bc f780 b122 9681
00000110: 656a df80 9643 4e80 b657 4801 c48d 3a81
00000120: c588 a800 0f2e af81 568c 8181 6c42 0681
00000130: 7038 3581 cfc6 5d00 820a 7101 3ab3 f100
00000140: a6a8 0081 8733 7001 e2d7 7f81 04e4 9000
00000150: e4a5 9181 7233 0080 9526 5000 c2d9 d980
00000160: 20ff 7b81 71f5 f800 6422 7f00 3dd4 c600
00000170: 577b 3181 dce8 5000 2da5 6381 c0bb 5d81
00000180: fef7 8f00 2ae3 1b01 82d5 2001 bc6a 1481
00000190: 8aa4 3681 a048 6901 3668 3981 5566 9380
000001a0: b264 5d80 7c3e 9780 1d11 2501 129e 0301
000001b0: da34 1f81 50fc 0d81 b9e8 9a01 00d6 9b81
000001c0: 4a0c 8201 8ee8 2180 3aa7 9601 d05d 7100
000001d0: 00a9 1881 d079 6c01 e514 0a81 97da 8101
000001e0: 5f4f 1d81 82f1 5381 c146 b681 ea3a 2301
000001f0: 066b a000 ae4d 3c81 211c 4300 df03 cc80
-3.409042e-38 -2.654383e-39 -2.3181922e-38 -4.033739e-38 -3.640061e-38 -6.219966e-39 5.0564964e-38 4.8013855e-38
2.893869e-38 -6.857014e-38 4.1916834e-38 5.386066e-38 -4.3997103e-38 1.7871543e-38 -2.1835156e-38 3.6470665e-38
-1.0708801e-38 6.023758e-38 -4.3484547e-38 2.010941e-38 1.4088892e-38 6.6445504e-38 6.29594e-38 1.1266428e-38
-4.0826422e-38 8.631807e-39 -8.17801e-39 7.763692e-39 -4.010741e-38 -4.5607534e-38 4.5689208e-38 -5.871792e-38
-9.361381e-39 6.888326e-39 5.312168e-38 2.6889264e-38 3.7722316e-38 -1.914545e-38 3.5599054e-38 -4.871595e-38
3.4061555e-38 -4.1867373e-38 -1.601381e-39 5.1325605e-38 4.4330063e-38 1.3136115e-38 6.50977e-39 2.9495788e-38
-1.8138165e-38 -2.0745262e-38 -7.019674e-38 5.498554e-39 -4.703566e-38 2.8966218e-38 1.3737896e-38 3.5371733e-38
1.725358e-38 -6.8911464e-38 5.336428e-38 -4.611289e-39 5.9071546e-38 -1.901331e-38 2.8528509e-38 3.9852738e-38
1.445536e-39 3.0340023e-38 -2.2750921e-38 -5.515108e-38 -2.0517483e-38 -7.187414e-39 3.6797128e-38 -3.4264516e-38
1.5477427e-38 -6.435094e-38 -4.758849e-38 -2.4659568e-38 -3.3284942e-38 8.61202e-39 4.4272248e-38 2.2196649e-38
-2.3630886e-38 4.4118007e-38 -4.699099e-38 1.3306108e-38 -5.350263e-38 -1.8455e-41 7.36068e-39 -2.000642e-38
-4.6284462e-38 2.2863251e-38 1.1675445e-38 1.8259565e-38 -3.2598258e-38 7.430374e-39 -4.1811823e-38 -4.0725993e-38
1.3221439e-38 2.8631986e-38 2.9540543e-38 -2.7259885e-38 -3.3546172e-38 4.2847447e-38 -3.40539e-38 -1.3536528e-38
-8.576824e-39 -1.3889575e-38 3.0317992e-38 2.417431e-38 -2.9241607e-38 -2.6078635e-38 5.6904606e-38 -5.724508e-38
4.777209e-38 -3.113996e-39 5.5341256e-38 1.0411065e-38 -2.8039242e-38 4.343375e-38 -2.5361588e-38 4.7700777e-38
-2.8893292e-38 -3.8927853e-38 -6.695777e-38 2.998064e-38 1.4732072e-38 -3.458588e-38 6.163069e-39 -1.873583e-38

ligandEncoder.convLayers.1.linear.weight f4 [128, 128]
00000000: d0da 1800 9ca4 3f01 0bef 0a81 660e 2d80
00000010: 16d9 5581 52b0 6181 e45c 2b00 979c 5781
00000020: 8c8f 5a01 8540 9501 cdc7 3200 8683 3781
00000030: cc11 a300 0780 8801 59bf 2d81 9dd4 3801
00000040: e295 6c01 7ebc 6b80 060d 7f81 403d 0a01
00000050: 4011 1c80 8fe6 3b81 6f20 3681 d617 9781
00000060: feb7 b201 de94 a401 4c52 9d81 0267 9381
00000070: ae24 8b01 dcd0 d880 6ca4 0001 66e0 9800
00000080: 7247 f680 a8bc 8381 4258 7381 6628 b201
00000090: 3b26 a981 fe60 8401 7a48 a301 d666 0581
000000a0: 3eac 9c00 d876 ad80 acc3 0080 286f 9d80
000000b0: 7a1c ae80 9cbf e600 2dd2 6081 57e6 1101
000000c0: ac4f 4201 5524 7081 6426 dd80 d06b 0c81
000000d0: 4d3b 5201 3f1a 6c81 140c 9180 1544 2201
000000e0: 7d70 2181 924f c880 5aa1 4201 bba2 7a81
000000f0: 7c16 7681 e6d0 2f80 01f7 3980 637b a601
00000100: 7813 9b81 c6c5 8381 c6ba 5000 0105 3001
00000110: 8009 3b80 a7d0 7801 5cac 6801 6259 0481
00000120: 40ea df80 8fda a181 1002 5580 806d bf00
00000130: e81f 8601 533e 2281 60e0 e580 f9df 0d00
00000140: 2721 8a01 4e8d ad01 fcc1 8a81 e607 6881
00000150: 36f0 9b81 c53d 3a81 c843 6d01 c023 2381
00000160: 2aac 2d00 823d 7d81 74b4 9181 aeda a881
00000170: e4b9 0e81 94c5 3a00 d71d 2401 1cfc 1b01
00000180: f16d 8201 fdc7 a281 70af 7400 5c68 0180
00000190: a218 7c80 c813 f480 a466 4680 dc7b 2100
000001a0: 1e56 1901 1e62 8681 11e2 7401 0374 a481
000001b0: 587c 0101 4431 5701 9850 e680 1ebf 3901
000001c0: 26f7 6381 0634 9181 fc17 8c81 40c1 ac81
000001d0: c6f7 5601 4863 3901 70e9 7301 e4ac 7281
000001e0: db2a 3a81 0b67 7a81 00d7 a900 3a5b 7880
000001f0: 8a85 7101 eec7 3b01 1038 ca80 1508 3c80
00000200: 42e7 3a01 38ee aa81 4c16 6d00 e181 0c81
00000210: 7806 a400 869f 2a80 5cb7 5481 5834 2e00
00000220: e826 2801 641f e400 5003 0d80 d07b cf00
00000230: 0aa9 3e81 908a 4701 88e9 cb80 3acd d700
00000240: 044b ca80 10df f780 684b 7e80 eb56 0f01
00000250: cc9f 9600 6d59 7001 a0db 8801 c83c d800
00000260: 3075 8400 d213 ac80 0407 4681 c106 5201
00000270: ac73 7780 6aa8 0f00 9eb5 f400 a230 2601
00000280: e644 ac81 6810 8880 4290 7d81 b0ce d600
00000290: 56aa 9300 0be2 6a01 c02a 7980 0840 5781
000002a0: 7234 8201 b69d 2700 6283 6201 82e7 2281
000002b0: 2442 1381 d6e7 3301 a03f ea00 4426 a681
000002c0: 5b38 9901 9011 0c81 9238 f880 ca0c 6c01
000002d0: 2cf3 9e80 14bd 7c01 8bf3 9981 6b30 3e01
000002e0: 5ff1 6081 98d9 4881 64ef f680 eb5a bd01
000002f0: 58a1 d800 0f69 9681 c776 7181 11f9 a281
00000300: a4d0 5e01 650d 2e01 e4d6 8380 d676 7c80
00000310: 24a5 ae81 9c0b 1081 6c7f 7781 d02e 1281
00000320: ee0b b301 1443 0d00 24b2 0481 aa82 4a81
00000330: 27cf 2581 6ab1 8881 aa0d 9780 ccc0 6b81
00000340: 182a b580 f8b7 ad01 7200 4801 3083 fa00
00000350: 3266 1301 d4fc e200 c747 2181 c46d 4d01
00000360: c6f6 a001 822e a001 ac57 5780 13bb 0c81
00000370: 3cd0 be01 e6e1 bd80 00a1 d900 a144 6f01
00000380: 184c fe80 c4d2 4680 b36e 8381 72ef ea80
00000390: 58de 4601 a472 7601 7be5 1e81 e03d a380
000003a0: 04f5 8581 0467 7c00 b58e 8201 b60b 4f80
000003b0: 8edd b901 02c5 3801 94cc 5e81 326c 7b81
000003c0: a1e7 9501 5864 d980 b08b 0681 4230 8781
000003d0: 0913 c980 e729 5581 60aa f080 04b4 2480
000003e0: 5028 aa00 8c1a 0101 8c68 2080 ec81 3781
000003f0: d66c ae00 500d 2180 df34 1e81 74b5 f100
2.282547e-39 3.519926e-38 -2.5518102e-38 -4.137763e-39 -3.9277673e-38 -4.1452477e-38 3.982249e-39 -3.960161e-38
4.0143266e-38 5.4826537e-38 4.66345e-39 -3.3706155e-38 1.497557e-38 5.014222e-38 -3.1912367e-38 3.3948005e-38
4.345389e-38 -9.894016e-39 -4.6845447e-38 2.5390542e-38 -2.577582e-39 -3.4511893e-38 -3.345139e-38 -5.550284e-38
6.565089e-38 6.04577e-38 -5.779078e-38 -5.414708e-38 5.111317e-38 -1.9911392e-38 2.3627854e-38 1.4039494e-38
-2.2617162e-38 -4.839251e-38 -4.4695373e-38 6.544484e-38 -6.2135653e-38 4.862832e-38 5.998074e-38 -2.4502023e-38
1.4388126e-38 -1.5930174e-38 -7.0194e-41 -1.4458048e-38 -1.5989592e-38 2.11909e-38 -4.1293096e-38 2.6797555e-38
3.5689334e-38 -4.4107105e-38 -2.0309417e-38 -2.579129e-38 3.8613455e-38 -4.3365185e-38 -1.332048e-38 2.9803547e-38
-2.9651736e-38 -1.8395644e-38 3.5747937e-38 -4.6034501e-38 -4.5199196e-38 -4.391207e-39 -5.323232e-39 6.115582e-38
-5.6965944e-38 -4.840559e-38 7.413841e-39 3.2329685e-38 -5.421702e-39 4.5700107e-38 4.2735332e-38 -2.43087e-38
-2.0563349e-38 -5.9455676e-38 -7.806757e-39 1.7579861e-38 4.926961e-38 -2.9799416e-38 -2.1110819e-38 1.274208e-39
5.0740765e-38 6.3752926e-38 -5.097155e-38 -4.2617337e-38 -5.7282693e-38 -3.4207122e-38 4.3578656e-38 -2.996402e-38
4.194358e-39 -4.651289e-38 -5.3523525e-38 -6.2027243e-38 -2.621465e-38 5.397336e-39 3.0143452e-38 2.8649883e-38
4.7912216e-38 -5.979637e-38 1.0715853e-38 -1.29273e-40 -1.1396438e-38 -2.2414957e-38 -6.465305e-39 3.075004e-39
2.8163448e-38 -4.936462e-38 4.4977917e-38 -6.0410554e-38 2.378277e-38 3.952461e-38 -2.1151076e-38 3.4116253e-38
-4.1870636e-38 -5.333924e-38 -5.1462294e-38 -6.346012e-38 3.948336e-38 3.4050364e-38 4.4799534e-38 -4.4572423e-38
-3.4193552e-38 -4.5991678e-38 1.5597326e-38 -1.1052985e-38 4.436052e-38 3.4489918e-38 -1.8570882e-38 -5.513029e-39
3.4328724e-38 -6.2789965e-38 1.0018068e-38 -2.5807122e-38 1.5063342e-38 -3.914317e-39 -3.9069804e-38 4.24321e-39
3.088464e-38 2.0949754e-38 -1.19505e-39 1.9054363e-38 -3.5018768e-38 3.664994e-38 -1.8726381e-38 1.9818253e-38
-1.8577681e-38 -2.2763387e-38 -1.1598323e-38 2.6327312e-38 1.3832649e-38 4.4145198e-38 5.0273656e-38 1.9858271e-38
1.2164324e-38 -1.5802816e-38 -3.637189e-38 3.8575754e-38 -1.0969919e-38 1.437948e-39 2.2473013e-38 3.0524277e-38
-6.3281686e-38 -1.2495513e-38 -4.657226e-38 1.9726942e-38 1.3560923e-38 4.314119e-38 -1.1127431e-38 -3.9535204e-38
4.7829713e-38 3.63816e-39 4.1603907e-38 -2.99208e-38 -2.704709e-38 3.3043442e-38 2.151233e-38 -6.103368e-38
5.628419e-38 -2.572654e-38 -2.2795497e-38 4.335553e-38 -1.4597242e-38 4.6420747e-38 -5.655279e-38 3.4932227e-38
-4.1315478e-38 -3.6890314e-38 -2.2677409e-38 6.9558096e-38 1.9894346e-38 -5.525205e-38 -4.4349928e-38 -5.9866794e-38
4.0924653e-38 3.1968363e-38 -1.2107538e-38 -1.1430232e-38 -6.415447e-38 -2.6456952e-38 -4.5458156e-38 -2.684955e-38
6.5771334e-38 1.217925e-39 -2.437238e-38 -3.7195287e-38 -3.0454338e-38 -5.0213087e-38 -1.3872062e-38 -4.3301008e-38
-1.6637325e-38 6.3814146e-38 3.6734518e-38 2.3005935e-38 2.7072957e-38 2.084552e-38 -2.9622527e-38 3.7731306e-38
5.912882e-38 5.8841453e-38 -8.021139e-39 -2.5848158e-38 7.009378e-38 -1.7437946e-38 1.9986059e-38 4.3946606e-38
-2.3353513e-38 -6.504093e-39 -4.8280646e-38 -2.1575403e-38 3.652638e-38 4.5265315e-38 -2.918466e-38 -1.4991382e-38
-4.9208064e-38 1.1424557e-38 4.795923e-38 -7.259205e-39 6.827618e-38 3.393681e-38 -4.0921738e-38 -4.6179045e-38
5.5066327e-38 -1.9964299e-38 -2.4712134e-38 -4.9660414e-38 -1.8465763e-38 -3.9151985e-38 -2.2101638e-38 -3.370655e-39
1.5626496e-38 2.3712604e-38 -2.97624e-39 -3.3705006e-38 1.601842e-38 -3.035347e-39 -2.905795e-38 2.2197448e-38

ligandEncoder.convLayers.1.linear.bias f4 [128]
00000000: 261d 2e81 82d7 0301 f02b ae81 6875 ac81
00000010: e45a 6301 465c 1600 3014 9e80 4c91 1681
00000020: ca8b a501 2ea0 6100 ee04 7580 7648 a001
00000030: f82c 0e00 df82 9881 ee14 9501 0416 6b01
00000040: 12bd fe00 fc29 a501 87dd 9d01 e98b 1701
00000050: d486 2a01 d2cc af80 b292 0001 d3a6 7681
00000060: e9fd 6481 6578 b280 b22a f600 629a 1701
00000070: 3edc 4181 38b8 9401 3e8e 9381 10e8 1e00
00000080: b74c 1901 345e 2281 a021 8381 d6b5 3101
00000090: 15b6 a181 20a4 4d01 9e65 4601 ed8a 3681
000000a0: 5871 1a81 a301 8501 a569 1e01 57fd 1080
000000b0: 4adf 9681 cade 3401 ce56 6001 0bbc b181
000000c0: 087d b401 ae51 8381 e6e7 2401 214c 9701
000000d0: 79cc 3801 3ed8 1e01 b3d8 a181 f076 1d80
000000e0: 3f22 1681 c0a5 4900 f6ea 3800 0251 b701
000000f0: 5282 ad81 5854 7a80 7693 2200 063a 8381
00000100: 941e 6101 853a a781 2432 7600 8890 2201
00000110: f5e7 b981 ad3b 4301 0b64 2781 a0db 8481
00000120: 74d4 1501 7bf5 9681 ae0a 2501 e00f 6681
00000130: 0ae0 a700 2e02 e300 e0fd 7a00 5cf7 8a80
00000140: 0976 4601 447c 8801 30ab 9001 2525 0401
00000150: 7a0b 5b81 6ba3 3e81 508f d300 0cfa 5d00
00000160: 34df 3601 6afa 2281 2b0f 6c01 4bf3 3881
00000170: 587c bd80 a63a f900 4003 5280 ce1b 8901
00000180: 0cbe 6781 9dbb 7901 dc33 a881 b4e1 3080
00000190: fe76 6681 a054 9881 28e7 1680 b8a5 0581
000001a0: 66fe 8481 a833 9981 1200 3a81 b2e9 4000
000001b0: 74da 9080 c74e 1800 d617 3381 6c46 4881
000001c0: 2a16 e800 f4d7 3701 93d9 3001 0eed 1980
000001d0: 1f7d 8581 a2ff 3980 e5be 8981 27f6 9801
000001e0: 2e8e 8681 eae4 9601 e4f4 e300 74d6 0280
000001f0: ee48 af01 066e ba80 dc68 0601 0bef be01
-3.1979666e-38 2.421552e-38 -6.398055e-38 -6.335129e-38 4.1758526e-38 2.053482e-39 -1.451725e-38 -2.7654894e-38
6.0812015e-38 8.965505e-39 -1.0746521e-38 5.8878694e-38 1.301829e-39 -5.602377e-38 5.476399e-38 4.317848e-38
2.3394042e-38 6.067167e-38 5.799057e-38 2.78347e-38 3.1320803e-38 -1.6144688e-38 2.3615136e-38 -4.5302755e-38
-4.2059158e-38 -1.6389908e-38 2.2606848e-38 2.7845084e-38 -3.5606518e-38 5.4630955e-38 -5.420338e-38 2.838313e-39
2.8156702e-38 -2.9822288e-38 -4.817005e-38 3.2640227e-38 -5.9403334e-38 3.7770307e-38 3.6439763e-38 -3.3527795e-38
-2.8366653e-38 4.885883e-38 2.9095813e-38 -1.560249e-39 -5.54217e-38 3.3220622e-38 4.1204582e-38 -6.528936e-38
6.630097e-38 -4.8239005e-38 3.0288422e-38 5.557788e-38 3.3942165e-38 2.9175163e-38 -5.945301e-38 -2.705896e-39
-2.757522e-38 6.763451e-39 5.227076e-39 6.7339824e-38 -6.3737164e-38 -1.1234187e-38 3.175306e-39 -4.820506e-38
4.1347912e-38 -6.1430083e-38 1.0854576e-38 2.9858397e-38 -6.829111e-38 3.585866e-38 -3.0744833e-38 -4.880429e-38
2.7519405e-38 -5.5453545e-38 3.0313376e-38 -4.2255718e-38 1.5416898e-38 2.084744e-38 1.1295004e-38 -1.2762034e-38
3.6451543e-38 5.013682e-38 5.314289e-38 2.427122e-38 -4.023218e-38 -3.5014735e-38 1.94287e-38 8.630401e-39
3.358826e-38 -2.9934364e-38 4.3357237e-38 -3.3970017e-38 -1.7401515e-38 2.2888078e-38 -7.531677e-39 5.036575e-38
-4.256435e-38 4.5868683e-38 -6.178787e-38 -4.489071e-39 -4.23297e-38 -5.595741e-38 -2.103304e-39 -2.454714e-38
-4.8854186e-38 -5.6277447e-38 -3.4162855e-38 5.961306e-39 -1.3302678e-38 2.232312e-39 -3.289421e-38 -3.6784724e-38
2.1313786e-38 3.376673e-38 3.2482196e-38 -2.380927e-39 -4.9036024e-38 -5.326327e-39 -5.059977e-38 5.6189193e-38
-4.9427844e-38 5.5429773e-38 2.0934508e-38 -2.60602e-40 6.4389496e-38 -1.7120871e-38 2.4687146e-38 7.0137987e-38

ligandEncoder.convLayers.1.edgeLinear.weight f4 [128, 6]
00000000: 9611 a580 98b6 0e00 a6b1 1301 e432 3a81
00000010: 50b6 2901 e022 3081 01c2 7200 aa0e 7e81
00000020: 50c0 6c81 1cb1 8581 7e51 6501 7f60 9981
00000030: f452 1501 0398 a300 3263 9981 1ee7 ef00
00000040: fe3b bf80 8830 6481 152e ac81 6562 5181
00000050: a68a 9f01 3c94 9e81 c6d8 6781 b249 e100
00000060: 53f7 6501 5080 e880 3411 0881 0978 2d80
00000070: f93a 9101 3c77 1101 2029 0380 f69e 1881
00000080: 4875 1481 df30 1581 ec08 8a81 1998 1981
00000090: 8ebd 7c81 4042 1381 5752 9b81 fd65 6f81
000000a0: 361d 8f81 1a66 1280 c0ac 9c00 7f37 a801
000000b0: 0a2d 1c00 f8b8 2a00 ba27 1101 f5b4 8601
000000c0: 8c5e 3400 543d 3e00 9a66 f600 0985 d680
000000d0: 16f2 b001 0dfc 3e80 ec28 1381 b9e2 4701
000000e0: 68db a981 f83c cb80 fa13 6601 e9b6 a200
000000f0: c6c5 4d80 e4d9 4300 9cd2 4581 1ec7 8500
00000100: 8c25 b580 76ef 7c80 3fe0 7a81 5936 3380
00000110: a1e4 fc00 15db 9c00 9037 d480 ed33 8101
00000120: 257c 4100 3bd8 a981 9a03 5680 9c29 b181
00000130: 2632 9581 4537 3200 0f3d 2d00 d164 9b01
00000140: 4d01 9701 8aab 0a81 fc7b b101 ac40 ad80
00000150: ea8a b301 b5a9 2d01 a2a0 9a00 3192 7781
00000160: 3c97 8d80 6fb1 8a81 0029 8100 ce5c 5401
00000170: e66b 2681 58f5 5780 d5fe cd80 b7c6 9081
00000180: cec5 ac00 baac 5f81 ce4b 7b81 86d3 2480
00000190: 4784 b181 5682 4e81 df8e 0401 a201 6c81
000001a0: 75c4 6380 0c6b bf01 07a9 a700 fecd 5c01
000001b0: 5818 a400 e7c6 8f00 a104 5280 e0c8 5100
000001c0: f292 0680 53b8 9201 b7f3 5000 e7e1 a481
000001d0: a02f 0e00 4bd7 d880 3491 dc80 1746 9d00
000001e0: 6e21 0580 cc23 aa01 04cf f400 736d 4201
000001f0: ade1 5601 1832 b900 6657 ad00 0c0a 7881
00000200: d542 2700 2be9 fd80 c0b0 0281 bbbd c980
00000210: 9000 8401 25ab 3781 7ec3 9a00 7e50 2700
00000220: cf63 4b01 08cd 8001 9f6b 0300 cd8a 2a80
00000230: 78eb bf00 043d 6001 8f29 eb00 6a71 4200
00000240: d0c8 2c81 a646 9480 b1dc a400 ed79 4001
00000250: a39c 2e81 e0ee 2b80 2497 6000 1539 4201
00000260: 3572 7300 86a5 8981 2f47 6500 7297 3380
00000270: ec25 4701 64ea 6c00 e85a 8500 c36a 6600
00000280: b6af ba01 d064 0880 eeeb 9880 4bf8 2a01
00000290: cb20 8a80 03df c680 e3c8 1a81 639f 3f81
000002a0: 3ab8 9481 2081 7f01 3850 a501 0b68 9a81
000002b0: 2c76 1f80 928c 1d81 5dc2 4b81 6661 0f00
000002c0: fcf2 3401 dd42 8601 52f5 5101 12fb 4700
000002d0: d6f6 5180 e095 1281 f607 9f81 bc1b 4580
000002e0: 560c 2b81 d01c 4100 32e9 9f01 e0ec 8901
000002f0: 8a1c 9a01 cedf 8981 8148 8001 ea49 6401
00000300: 3769 dd80 c2f0 1901 f1b3 9280 53a1 0400
00000310: 3caa e900 783e 1201 acdb d400 5618 a180
00000320: baca 6f01 3d74 5900 3f31 3581 2e37 4881
00000330: 3728 8180 a374 8001 d62b 3381 3440 8b01
00000340: ee72 ab81 b664 b101 eead 3f01 94a6 6f00
00000350: 4a55 c000 8f88 c200 1c4d 4301 cbfd 9f81
00000360: b319 ec00 2731 1a80 7d87 a701 0fd9 e400
00000370: f8d4 a181 089c 0180 a097 0081 3bd2 0200
00000380: 9760 5380 6ca1 5c81 7263 4781 8600 0381
00000390: 9319 3581 9225 2381 8963 9b01 36e0 2a81
000003a0: e4f1 2101 5df4 a681 b41b a101 f7b5 2800
000003b0: 7a6d 2601 dc69 3180 6a94 5001 dbf5 6101
000003c0: 204b 5081 3a17 9501 67eb a401 c338 7401
000003d0: 405a 7680 2488 ac00 6cb0 1f01 4662 4980
000003e0: 5047 5201 cc8d cf80 0016 9901 1e5f 1481
000003f0: 9471 2681 a447 5481 478b b801 869f 8601
-1.5159166e-38 1.351199e-39 2.7127092e-38 -3.4199317e-38 3.11712e-38 -3.2351116e-38 1.0538842e-38 -4.6662953e-38
-4.3484332e-38 -4.9110623e-38 4.2119125e-38 -5.634179e-38 2.7426494e-38 1.5023717e-38 -5.634566e-38 2.2031593e-38
-1.7562101e-38 -4.1911806e-38 -6.3248946e-38 -3.8457832e-38 5.8606326e-38 -5.825274e-38 -4.2583527e-38 2.0689424e-38
4.2238104e-38 -2.1351865e-38 -2.4991598e-38 -4.175658e-39 5.334921e-38 2.671784e-38 -2.9026e-40 -2.803204e-38
-2.7267452e-38 -2.740204e-38 -5.0705996e-38 -2.8210787e-38 -4.642109e-38 -2.7047168e-38 -5.705616e-38 -4.397054e-38
-5.257182e-38 -1.689666e-39 1.4388308e-38 6.1793086e-38 2.587551e-39 3.923445e-39 2.6660796e-38 4.9483487e-38
4.809363e-39 5.715801e-39 2.2628339e-38 -1.970052e-38 6.4999566e-38 -5.78422e-39 -2.7028996e-38 3.6713193e-38
-6.239563e-38 -1.8664477e-38 4.225866e-38 1.4942966e-38 -7.142281e-39 6.231143e-39 -3.633429e-38 1.2285551e-38
-1.6635694e-38 -1.1473504e-38 -4.6078637e-38 -4.703107e-39 2.3224562e-38 1.4404929e-38 -1.9489057e-38 4.7461626e-38
6.013842e-39 -6.239107e-38 -7.899145e-39 -6.507924e-38 -5.4805915e-38 4.611602e-39 4.154501e-39 5.708267e-38
5.5470506e-38 -2.546967e-38 6.519744e-38 -1.5910741e-38 6.5953547e-38 3.189684e-38 1.420029e-38 -4.5471622e-38
-1.3003058e-38 -5.09478e-38 1.1861487e-38 3.9004834e-38 -3.0566798e-38 -8.077701e-39 -1.8917693e-38 -5.318239e-38
1.5866664e-38 -4.1082557e-38 -4.6155806e-38 -3.381958e-39 -6.520934e-38 -3.7929736e-38 2.4347076e-38 -4.3347526e-38
-9.16219e-39 7.0315924e-38 1.5397163e-38 4.055541e-38 1.5069754e-38 1.3203829e-38 -7.532171e-39 7.510736e-39
-6.03727e-40 5.389642e-38 7.434268e-39 -6.056824e-38 1.302782e-39 -1.99137e-38 -2.0255898e-38 1.4443316e-38
-4.7117e-40 6.2499503e-38 2.2482124e-38 3.5710698e-38 3.9467507e-38 1.7007537e-38 1.5918893e-38 -4.5557614e-38
3.605559e-39 -2.3318025e-38 -2.400404e-38 -1.8526997e-38 4.848995e-38 -3.3734582e-38 1.4212796e-38 3.61046e-39
3.735682e-38 4.731398e-38 3.14114e-40 -3.906883e-39 1.762505e-38 4.118608e-38 2.159625e-38 6.101828e-39
-3.1735487e-38 -1.3616997e-38 1.514019e-38 3.5352308e-38 -3.2071134e-38 -4.034619e-39 8.870427e-39 3.5673127e-38
1.0602052e-38 -5.0563366e-38 9.300921e-39 -4.737939e-39 3.6577735e-38 1.0002317e-38 1.2246732e-38 9.40552e-39
6.857774e-38 -7.70849e-40 -1.4043631e-38 3.140221e-38 -1.2685062e-38 -1.826343e-38 -2.8429462e-38 -3.5195514e-38
-5.4630966e-38 4.6928746e-38 6.0726536e-38 -5.671996e-38 -2.889292e-39 -2.89372e-38 -3.742466e-38 1.412472e-39
3.323511e-38 4.931977e-38 3.8563246e-38 6.610387e-39 -7.527223e-39 -2.6923495e-38 -5.84188e-38 -6.346598e-39
-3.141659e-38 5.979643e-39 5.8741994e-38 5.066575e-38 5.6611617e-38 -5.0646996e-38 4.712381e-38 4.1930017e-38
-2.0333389e-38 2.8274397e-38 -1.3472533e-38 4.25214e-40 2.1458739e-38 2.6860784e-38 1.9547929e-38 -1.4794245e-38
4.4042816e-38 8.215058e-39 -3.3279782e-38 -3.6773788e-38 -1.1861205e-38 4.718714e-38 -3.2908558e-38 5.1152663e-38
-6.2980395e-38 6.5164044e-38 3.5205948e-38 1.0253497e-38 1.7663011e-38 1.7865074e-38 3.5871167e-38 -5.877155e-38
2.1682396e-38 -2.405355e-39 6.154053e-38 2.1016359e-38 -5.9447655e-38 -1.47809e-40 -2.3618673e-38 2.59087e-40
-7.656996e-39 -4.0523433e-38 -3.6621876e-38 -2.4061276e-38 -3.3262798e-38 -2.9965327e-38 5.7080834e-38 -3.1384932e-38
2.9744578e-38 -6.1329414e-38 5.918181e-38 3.738697e-39 3.056793e-38 -4.537915e-39 3.8310048e-38 4.1502366e-38
-3.8257466e-38 5.4767284e-38 6.058187e-38 4.4856447e-38 -1.0868964e-38 1.5844543e-38 2.9330264e-38 -6.739245e-39
3.8622073e-38 -1.9060815e-38 5.623489e-38 -2.725155e-38 -3.0570873e-38 -3.898965e-38 6.779078e-38 4.945273e-38

ligandEncoder.convLayers.1.edgeLinear.bias f4 [128]
00000000: 34e4 b001 520e 3701 dad4 9301 5921 9001
00000010: e0ea 1881 7cf3 b781 5f9c 1600 7ec5 9881
00000020: e308 3401 5e96 9181 0b98 b681 17d9 cd00
00000030: c60b 9181 83f4 9300 c794 0300 7a59 a101
00000040: a6b8 7f00 b733 9601 9493 2b80 bfe6 a181
00000050: e97e 8281 4d13 c680 edea 4300 965e 0701
00000060: d101 5680 82bc 9201 bbb5 0981 a44c 3681
00000070: 5a14 ff00 1e8e ad81 8c7f 6481 6255 d680
00000080: caa1 e180 7931 5d01 c8fe 5301 8044 1f81
00000090: f8ec a801 8fb0 8780 a1d9 1401 c647 0b00
000000a0: 9c6a 8581 d309 b081 1c3a c480 6cb4 7601
000000b0: 081b 8f81 e2c0 9c81 d038 a001 80e8 a101
000000c0: 6c94 f780 0159 7181 ac71 8b00 5328 b480
000000d0: 1f84 0b81 6b00 2e80 20df d900 4e63 e600
000000e0: aae5 8f81 6d50 2981 5cb6 7781 ee21 c100
000000f0: da6f 4c80 2af2 c980 cd56 0200 78ca 4f81
00000100: 0cfe 1b81 429e e900 f39b 4181 2712 c200
00000110: 6eac 9201 a252 a381 8cc2 e300 de92 8301
00000120: 9187 6001 efc2 bb80 2006 9581 e5a4 5281
00000130: 0a2f 4a81 ec3b 6600 481b 6480 f61e a780
00000140: 2c55 5881 9496 0f80 e8f0 eb80 e260 1180
00000150: 61d7 e400 1574 8981 de81 5f81 fede 6181
00000160: 6f79 0901 a347 ff80 8511 0d01 6b55 b480
00000170: e7dc 7881 7104 6b01 974d 7c01 35bc 3981
00000180: 875f 1481 06fa 9101 0c42 b080 3aca 9d00
00000190: e9d2 f080 5e97 5201 5cf5 1280 3ce7 7e80
000001a0: e0fc 6d81 9434 0f80 7163 7a81 4fb4 8500
000001b0: 7aff 2881 f318 8501 6640 cf80 a4ee 8381
000001c0: a892 ae01 0962 3881 c567 3581 9a8b 5481
000001d0: 6a64 4b01 1f77 8e01 8396 9801 f039 9c01
000001e0: da65 9401 8452 9701 40a9 9901 6071 6f01
000001f0: 8ea4 b781 2cb8 3f81 1b30 2481 9125 2381
6.4979645e-38 3.3622066e-38 5.43047e-38 5.29451e-38 -2.8086505e-38 -6.7572966e-38 2.076476e-39 -5.611937e-38
3.3067155e-38 -5.3480354e-38 -6.707441e-38 1.8904154e-38 -5.328148e-38 1.3587532e-38 3.28878e-40 5.927045e-38
1.1729347e-38 5.5175505e-38 -4.001867e-39 -5.9473164e-38 -4.7936565e-38 -1.8190352e-38 6.237254e-39 2.4863446e-38
-7.898504e-39 5.3902425e-38 -2.529331e-38 -3.3483108e-38 2.3425352e-38 -6.375409e-38 -4.1968497e-38 -1.9683426e-38
-2.0721026e-38 4.0626784e-38 3.8937376e-38 -2.9252834e-38 6.2053487e-38 -1.2461129e-38 2.7339448e-38 1.035938e-39
-4.900946e-38 -6.4666286e-38 -1.8020603e-38 4.531251e-38 -5.256869e-38 -5.7582123e-38 5.885624e-38 5.947568e-38
-2.2736611e-38 -4.4328566e-38 1.2805912e-38 -1.6544855e-38 -2.562506e-38 -4.224583e-39 2.0008345e-38 2.1157788e-38
-5.2859456e-38 -3.10981e-38 -4.5497572e-38 1.7736422e-38 -7.019622e-39 -1.8545807e-38 2.14809e-40 -3.816516e-38
-2.8651274e-38 2.1454443e-38 -3.556039e-38 1.7822598e-38 5.3879354e-38 -5.9995316e-38 2.0916448e-38 4.8332544e-38
4.1239566e-38 -1.7243167e-38 -5.4742745e-38 -3.8689214e-38 -3.713529e-38 9.388717e-39 -9.193336e-39 -1.5347635e-38
-3.9734042e-38 -1.43155e-39 -2.1667762e-38 -1.595958e-39 2.1015757e-38 -5.049242e-38 -4.1051806e-38 -4.1485962e-38
2.525005e-38 -2.344375e-38 2.591018e-38 -1.6561032e-38 -4.5708896e-38 4.316587e-38 4.6340758e-38 -3.4114166e-38
-2.7251844e-38 5.3623354e-38 -1.618674e-38 1.4490718e-38 -2.211618e-38 3.867951e-38 -1.741057e-39 -1.1654224e-38
-4.3711454e-38 -1.396394e-39 -4.5989094e-38 1.2278804e-38 -3.1040022e-38 4.8892284e-38 -1.903305e-38 -4.846423e-38
6.4127947e-38 -3.38658e-38 -3.33189e-38 -3.903841e-38 3.7357255e-38 5.233349e-38 5.6051955e-38 5.7388486e-38
5.4512764e-38 5.5587044e-38 5.6446185e-38 4.397871e-38 -6.745971e-38 -3.5213296e-38 -3.0156557e-38 -2.9965324e-38

ligandEncoder.convLayers.2.linear.weight f4 [128, 128]
00000000: 3eec 6780 c2c4 1601 cae3 8881 7e57 bc01
00000010: 3219 4980 6a85 6401 ea15 c080 7c0f b500
00000020: 1a66 a780 6165 b100 8b19 8801 7057 0600
00000030: c9b7 2301 ceea 5380 a5f6 8f01 1699 0081
00000040: 1e8b 4081 6073 3900 964b db80 d89f 8581
00000050: 20d1 7200 de43 c680 d974 5f81 bad1 4e00
00000060: ee21 9f81 baa5 3400 5400 c280 24e7 5200
00000070: 7927 6501 5ad2 8280 dee1 9b01 f23f 3001
00000080: b43e b600 ee6e 8c81 8209 c900 0a45 8401
00000090: fc07 9201 2dfb 6981 0c40 1781 527b 8001
000000a0: 4891 dc00 d0fc b000 cf50 2e01 72d1 9681
000000b0: feaa ab80 2495 b780 b879 d080 ac88 6481
000000c0: 902d 1c00 38ca 1181 0473 8f01 463d 4f81
000000d0: 3c93 0500 7df2 5781 3c47 3101 846b 5201
000000e0: c9b8 2f81 c664 a001 3db0 6d01 9475 6701
000000f0: db40 5d81 045e 5401 94a6 3f81 7b38 ac81
00000100: 7c0f 7780 26bf 6301 2b6c 6881 8afe 9781
00000110: 6a55 1681 3046 0e80 9e62 8c01 79fd 8401
00000120: 462a 9401 8830 ad01 ba1c 2880 5415 9b80
00000130: 7880 a501 70f5 c480 6919 3501 2e32 6400
00000140: b887 7900 78d0 ab01 50a9 8a81 28fe c800
00000150: 7620 5f81 454c 2081 341a 7c80 50eb 7301
00000160: 98b5 cd80 e59e 2681 e2d3 9900 3c2b 9280
00000170: 0046 8481 d305 6e01 d0a9 6281 5280 0b01
00000180: 8ad9 0480 bee6 6180 ced3 1d81 4c13 9081
00000190: 49b7 7681 78cc 3101 92b8 4601 3e7f 3480
000001a0: dd87 a801 32aa 6281 2688 a181 c62d 2e80
000001b0: 2ac9 1b00 92ff 0801 460e 3101 487b 1900
000001c0: 1475 6d81 081d 7c01 6aac b801 48a4 9d81
000001d0: 960d 2901 8f74 2881 96a5 b001 80c4 2901
000001e0: e3f2 1800 29df ab01 afb4 4f01 f591 6881
000001f0: f0ad bc01 0fda 1d81 c2d1 3a80 9ea7 5e00
00000200: 1f0d 5e81 a074 b501 310f 1401 ee6a 8781
00000210: 86da 8381 5275 0e01 7644 aa01 1fc8 8301
00000220: 70bd d900 62e8 9001 5556 4e81 62a8 7381
00000230: 98b2 ba01 b637 a800 67ea 4201 e66d 8a01
00000240: 7a2c 8801 e88a 6701 16c8 a201 eedf 6a01
00000250: ce9c a381 fc56 ae00 4005 6a00 35fa 2081
00000260: a0aa 3280 fc06 9581 c64f bd01 245b b201
00000270: f872 8881 dad5 2780 46c1 1801 1e45 ab01
00000280: 36d7 8501 c603 6081 1a68 8681 758a fa00
00000290: a4b9 1701 d04f 9981 c22b 7580 1e49 c700
000002a0: 6f8c 2781 2432 0b01 7211 5a81 f954 4b01
000002b0: 2019 5b81 c092 7680 a8bb 7a00 485a 5a00
000002c0: 885e 0400 acb0 8c01 229a 4100 e312 4001
000002d0: ede4 a101 7967 b301 bcdf 4e81 a056 7581
000002e0: 6a8c 7c81 ba82 4201 69af 7d01 00a5 de00
000002f0: 888e 7680 f887 5700 66d4 b281 809e 8e00
00000300: 327a 6c81 32c0 7e01 9d24 7b01 d2ca 8b00
00000310: 813a 9281 b6e0 7e00 848c 9981 3855 8f81
00000320: ae7b 6181 a20a 7b00 1e04 4701 2c3d 5181
00000330: 5220 bb80 c804 6280 bea8 8501 a3b5 1f01
00000340: dcb0 8501 2903 1b01 ca5e 8a81 221d 4001
00000350: bace 6400 0a84 9201 7e8a 6581 7903 0b81
00000360: 1404 5d01 1755 bb01 5e05 0d80 44c1 df00
00000370: 2114 8381 92b8 8a01 be4b b501 a2dd b681
00000380: e483 c880 0f24 8301 5ec0 8180 cc6a 7f80
00000390: d7ca 4c81 b6f6 8401 c533 1901 9a41 9f01
000003a0: 48da 1780 2fed 5701 79e9 4781 631a 7481
000003b0: 21fe 3601 44b4 0201 1872 ed00 7036 a401
000003c0: 1f16 7001 ae2c 9800 1c26 7281 3a2b 3b00
000003d0: 623b 3881 4e0b e080 1f04 7f01 13e6 4001
000003e0: 1eea 7701 c1c0 7301 a80a 8501 b435 9381
000003f0: 4960 6c81 b265 9501 4ae0 6481 8c95 9280
-9.543804e-39 2.7691816e-38 -5.028537e-38 6.918584e-38 -6.71303e-39 4.1972706e-38 -1.7640277e-38 1.662778e-38
-1.5373155e-38 1.6291251e-38 4.999516e-38 5.8238e-40 3.007023e-38 -7.706578e-39 5.288382e-38 -2.361972e-38
-3.5364642e-38 5.276012e-39 -2.0139089e-38 -4.908585e-38 1.0544266e-38 -1.8207774e-38 -4.1042465e-38 7.238404e-39
-5.845606e-38 4.834897e-39 -1.7816204e-38 7.613428e-39 4.2088977e-38 -1.2014074e-38 5.726211e-38 3.2371973e-38
1.6736554e-38 -5.1587054e-38 1.8462345e-38 4.858821e-38 5.3643387e-38 -4.297555e-38 -2.778027e-38 4.719673e-38
2.0255926e-38 1.625374e-38 3.201673e-38 -5.5401837e-38 -1.576521e-38 -1.6859397e-38 -1.9145448e-38 -4.1975044e-38
2.587739e-39 -2.677738e-38 5.2694943e-38 -3.8063857e-38 5.11995e-40 -3.966324e-38 3.2560874e-38 3.8648047e-38
-3.2275e-38 5.891932e-38 4.365647e-38 4.2512357e-38 -4.063782e-38 3.9005703e-38 -3.5200673e-38 -6.3263867e-38
-1.0933979e-38 4.1830458e-38 -4.2689277e-38 -5.5833885e-38 -2.761193e-38 -1.310875e-39 5.1569387e-38 4.885286e-38
5.4427273e-38 6.36198e-38 -3.683725e-39 -1.4242153e-38 6.079577e-38 -1.8087804e-38 3.326268e-38 9.20155e-39
1.1160782e-38 6.311462e-38 -5.0936145e-38 1.8458273e-38 -4.098192e-38 -2.944208e-38 -1.1397001e-38 4.480088e-38
-1.889142e-38 -3.0603386e-38 1.412684e-38 -1.3423492e-38 -4.8589587e-38 4.3717875e-38 -4.163148e-38 2.5622333e-38
-4.4538e-40 -8.990818e-39 -2.8988308e-38 -5.2924935e-38 -4.5314565e-38 3.2656465e-38 3.649928e-38 -4.821092e-39
6.190841e-38 -4.1631753e-38 -5.9337423e-38 -4.240853e-39 2.551722e-39 2.5162618e-38 3.2520006e-38 2.340112e-39
-4.3614025e-38 4.630592e-38 6.783833e-38 -5.7908424e-38 3.1050145e-38 -3.0940353e-38 6.4889793e-38 3.118138e-38
2.291183e-39 6.31357e-38 3.814953e-38 -4.271639e-38 6.930988e-38 -2.8992795e-38 -5.401706e-39 8.692666e-39
-4.0784374e-38 6.665625e-38 2.7194206e-38 -4.9744605e-38 -4.8435366e-38 2.6165454e-38 6.2546374e-38 4.840896e-38
1.999626e-38 5.32307e-38 -3.7898165e-38 -4.475286e-38 6.858188e-38 1.5448349e-38 3.5800348e-38 5.085089e-38
5.002233e-38 4.252766e-38 5.979651e-38 4.3139674e-38 -6.0101747e-38 1.601058e-38 9.736446e-39 -2.9566874e-38
-4.652984e-39 -5.474398e-38 6.9542104e-38 6.5517654e-38 -5.012348e-38 -3.6583e-39 2.8056658e-38 6.291466e-38
4.9165297e-38 -4.114501e-38 -4.9373204e-38 2.3008543e-38 2.786751e-38 -5.631785e-38 -1.076045e-38 1.8301493e-38
-3.0773812e-38 2.5566242e-38 -4.0052793e-38 3.7346176e-38 -4.0241974e-38 -1.0889233e-38 1.1271249e-38 8.297581e-39
4.01253e-40 5.168139e-38 6.0246e-39 3.527838e-38 5.947055e-38 6.590269e-38 -3.7996746e-38 -4.5061544e-38
-4.6385832e-38 3.5725964e-38 4.6594612e-38 2.0446671e-38 -1.0887719e-38 8.038465e-39 -6.569165e-38 1.30975e-38
-4.3434025e-38 4.6790325e-38 4.6127688e-38 1.2837892e-38 -5.371588e-38 1.1651884e-38 -5.6404954e-38 -5.2652187e-38
-4.141471e-38 1.129958e-38 3.6553481e-38 -3.8431126e-38 -1.7184832e-38 -9.001594e-39 4.9098617e-38 2.9334006e-38
4.9110265e-38 2.847127e-38 -5.082921e-38 3.5285732e-38 9.257709e-39 5.3821397e-38 -4.216002e-38 -2.553276e-38
4.0594215e-38 6.881505e-38 -1.195787e-39 2.0548646e-38 -4.8150684e-38 5.095804e-38 6.6597584e-38 -6.717427e-38
-1.8414413e-38 4.817354e-38 -1.1915787e-38 -1.170142e-38 -3.7614413e-38 4.8843155e-38 2.8138805e-38 5.850151e-38
-2.190521e-39 3.9659434e-38 -3.6718036e-38 -4.4834654e-38 3.361045e-38 2.4006563e-38 2.1805942e-38 6.03222e-38
4.409691e-38 1.3975023e-38 -4.4475722e-38 5.433801e-39 -3.3838068e-38 -2.0575206e-38 4.683906e-38 3.54299e-38
4.5534706e-38 4.4770345e-38 4.8871775e-38 -5.407633e-38 -4.3415435e-38 5.487988e-38 -4.2037906e-38 -1.346163e-38
