results/original_split/iter4_best_model.pt (torch, 925449 bytes, 27 tensors)

ligandEncoder.convLayers.0.linear.weight f4 [128, 19]
-0.018321196 -0.023420937 0.058003716 0.019971555 -0.006925683 0.0066647814 -0.0009131966 0.0038201897
0.0010476095 -0.0022937153 -0.0016666198 0.010130223 -0.0016227713 -0.016121658 0.06292298 -0.00078481954
0.001798403 -0.026749283 0.0682828 -0.19775121 -0.011682699 0.3033844 -0.0110257575 -0.16250564
-0.00056270073 0.1948225 0.1963675 -0.18873549 -0.0034042536 -0.25169218 -0.34072727 -0.1474335
-0.11266878 0.018248761 -2.185394e-39 2.357372e-39 -0.09602772 0.3401862 0.028039776 -0.017288517
-0.021619346 0.035285912 0.15412942 -0.09854405 0.0383958 -0.016924832 0.037953258 0.00924494
-0.03938222 -0.0050761993 0.0033233035 -0.16950019 0.19553936 -0.0015725422 -0.0019519594 0.2678777
-0.22727983 0.13584554 0.066009134 -0.2762838 0.02352922 0.035931796 0.0540891 -0.21782468
-0.1626081 0.07867394 -0.03425201 0.2290393 0.11882716 -0.09746882 0.049854506 0.115558825
-0.0015748839 -0.0029333394 -0.054999053 -0.26424703 0.09320818 0.21652046 -0.0117840795 -0.11361544
-0.01617498 -0.04406191 0.20271192 0.011074531 0.014339728 -0.009655444 -0.028361974 -0.011474171
-0.04340821 0.045082726 0.26104915 -7.376934e-39 -0.0029025977 -0.09079368 0.31137547 0.010203576
0.007789612 -0.049942125 0.025529291 0.022224952 -0.0060949065 0.01262602 0.0063091605 -0.0067355824
-0.0017894229 -0.008780452 -0.0003426109 0.024347862 -0.0063439165 0.016000599 0.0010798358 0.0017022751
0.010196879 0.049579803 0.18499705 -0.105050646 -0.010585408 -0.117565334 0.118964724 -0.0008981172
0.011429801 -0.010725872 -0.008864346 -0.00047321492 -0.14831163 -0.027589977 0.041639414 -0.014689653
0.048508972 -1.152174e-39 -4.118384e-39 0.11196842 0.049195796 0.112631455 0.05563358 0.15243897
-0.096542604 -0.028658414 0.1072016 -0.14935695 0.08464751 -0.05913566 0.019882787 0.02419034
0.08877949 0.038853064 0.023341253 -0.15456021 0.0015608238 -0.0027414595 -0.27176312 -0.2008149
-0.11646937 0.2063493 -0.0916778 0.046298563 0.029277775 -0.10971208 0.00957556 0.036311693
0.0068294583 -0.0025885364 0.12713753 -0.001831583 0.12500846 -0.042855367 -0.02769424 -0.0015679654
0.0028590455 0.08395047 0.03808964 0.0040242425 0.003989342 -0.0012901182 0.006343891 0.0018686753
0.0070919977 -0.031040471 0.0079520745 -0.0016998044 0.0030125172 0.0032901457 0.005344697 -0.029257523
0.008907422 0.0011403546 -0.0014831556 0.0028987906 0.0052011316 0.013770879 -0.015090121 0.30731
-0.07522438 -0.11854173 0.16845445 -0.14708665 0.05051702 -0.051156 0.05302885 0.005616927
-0.09321547 -0.07780677 0.006692608 -0.10964436 0.09670694 2.860098e-39 2.68476e-07 0.017559746
-0.04083441 0.07779018 -0.06965921 -0.031594794 -0.014308467 -0.00076781405 -0.011163472 0.013596698
0.0008816675 -0.0031783467 -0.003370701 0.015968982 0.004891364 -0.014105926 0.008591082 0.020982647
-0.0011772646 0.0005102649 0.078759894 0.045202248 0.07340862 -0.07570308 0.011780299 -0.038155388
-0.00064551097 -0.015814183 0.0132998545 -0.0022131426 -0.005590164 0.0034031668 0.02758169 0.015530914
-0.027190007 0.049830884 -0.01954394 0.00029080926 0.00026245174 0.08793793 0.026491717 0.20030132
0.044337977 -0.40367213 -0.18568367 0.27568004 -0.040078677 -0.084749304 0.020505609 0.015067188
00000000: 5516 96bc 44dd bfbc 4e95 6d3d 639b a33c
00000010: d7f0 e2bb 3d64 da3b 9663 6fba 265c 7a3b
00000020: f14f 893a 2852 16bb 7b72 daba 3cf9 253c
00000030: 2bb3 d4ba 9111 84bc c3dd 803d 59bc 4dba
00000040: 64b8 eb3a 5021 dbbc dad7 8b3d 4b7f 4abe
00000050: cb68 3fbc 3355 9b3e 61a5 34bc e167 26be
00000060: 3582 13ba 8d7f 473e 9014 493e e043 41be
00000070: e619 5fbb ccdd 80be ce73 aebe cff8 16be
00000080: e4be e6bd 6d7e 953c fdcb 1780 65ab 1900
00000090: 2eaa c4bd e32c ae3e acb3 e53c a6a0 8dbc
000000a0: 0e1b b1bc f687 103d 1ad4 1d3e 76d1 c9bd
000000b0: ea44 1d3d f2a5 8abc e074 1b3d 1778 173c
000000c0: 404f 21bd 3f56 a6bb c8cb 593b 7591 2dbe
000000d0: 783b 483e c31d ceba e4d8 ffba 4427 893e
000000e0: 0bbc 68be 181b 0b3e cc2f 873d 1275 8dbe
000000f0: 5ac0 c03c 382d 133d 888c 5d3d 6f0d 5fbe
00000100: bd82 26be cd1f a13d d64b 0cbd 4789 6a3e
00000110: a75b f33d bc9d c7bd 3d34 4c3d 1baa ec3d
00000120: 566c ceba 453d 40bb b046 61bd 634b 87be
00000130: eee3 be3d 8ab7 5d3e 0312 41bc 36af e8bd
00000140: 6481 84bc 437a 34bd b793 4f3e f371 353c
00000150: 2ef1 6a3c de31 1ebc 5f57 e8bc 29fe 3bbc
00000160: cfcc 31bd aaa8 383d 3ca8 853e e453 5080
00000170: 8239 3ebb 09f2 b9bd 9b6c 9f3e e62c 273c
00000180: 0040 ff3b 1d90 4cbd ce22 d13c 1a11 b63c
00000190: c8b7 c7bb 5edd 4e3c 13bd ce3b 29b6 dcbb
000001a0: 128b eaba e3db 0fbc 75a0 b3b9 2b75 c73c
000001b0: a1e0 cfbb b013 833c 4789 8d3a e01e df3a
000001c0: cf10 273c 3114 4b3d de6f 3d3e cb24 d7bd
000001d0: 6b6e 2dbc 18c6 f0bd c7a3 f33d a06f 6bba
000001e0: 0f44 3b3c 91bb 2fbc c33b 11bc d519 f8b9
000001f0: 01df 17be 6004 e2bc 178e 2a3d dfac 70bc
00000200: 58b1 463d cb8b 0c80 61d8 2c80 b34f e53d
00000210: 8881 493d 52ab e63d 09e0 633d f618 1c3e
00000220: 21b8 c5bd 0dc5 eabc 838c db3d 07f1 18be
00000230: ac5b ad3d 3c38 72bd 3ae1 a23c d22a c63c
00000240: 05d2 b53d 6424 1f3d 2836 bf3c 0845 1ebe
00000250: 8e94 cc3a 0faa 33bb 8924 8bbe 6ca2 4dbe
00000260: 7e87 eebd 3b4d 533e 92c1 bbbd 90a3 3d3d
00000270: f2d7 ef3c bab0 e0bd cfe2 1c3c 92bb 143d
00000280: a6c9 df3b 6fa4 29bb 5730 023e ba11 f0ba
00000290: 3802 003e 1c89 2fbd 08df e2bc 3084 cdba
000002a0: d35e 3b3b 39ee ab3d e203 1c3d cbdd 833b
000002b0: 07b9 823b 2f19 a9ba 6ae0 cf3b 57ee f43a
000002c0: fd63 e83b 9648 febc 6b49 023c f9cb deba
000002d0: a76d 453b 7c9f 573b 9122 af3b 79ad efbc
000002e0: 70f0 113c f377 953a 7266 c2ba a3f9 3d3b
000002f0: 416e aa3b 419f 613c 8e3c 77bc bc57 9d3e
00000300: 3d0f 9abd 02c6 f2bd 537f 2c3e e29d 16be
00000310: efea 4e3d f488 51bd c834 593d 330e b83b
00000320: c1e7 bebd 2859 9fbd aa4d db3b 398d e0bd
00000330: 4a0e c63d ca24 1f00 0f23 9034 75d9 8f3c
00000340: fb41 27bd 7550 9f3d 7da9 8ebd 8b69 01bd
00000350: 0f6e 6abc 2147 49ba ffe6 36bc afc4 5e3c
00000360: b41f 673a cf4b 50bb fbe6 5cbb 62d1 823c
00000370: bc47 a03b 8b1c 67bc 9cc1 0c3c cde3 ab3c
00000380: 724e 9aba 4cc3 053a de4c a13d fe25 393d
00000390: 4257 963d 370a 9bbd 2802 413c d348 1cbd
000003a0: 8237 29ba bf8c 81bc a2e7 593c 5f0a 11bb
000003b0: b22d b7bb aa07 5f3b fff2 e13c 6075 7e3c
000003c0: 94bd debc 781b 4c3d 9d1a a0bc c277 9839
000003d0: ad99 8939 cd18 b43d 2805 d93c ca1b 4d3e
000003e0: bd9b 353d 1dae cebe dc23 3ebe ef25 8d3e
000003f0: 8a29 24bd 0b91 adbd 61fb a73c 5edc 763c

ligandEncoder.convLayers.0.linear.bias f4 [128]
0.022251042 -0.17625426 0.12035454 0.07869515 0.098786734 0.007310347 0.1091512 0.05841071
-0.14379825 0.00521681 0.18034233 0.017555656 0.03138816 0.21925966 -0.18053521 -0.018321179
-0.22228865 0.11788125 0.013604801 -0.14474949 0.114229195 -0.15621442 0.19278514 0.13633847
0.118913926 0.07070659 0.009486136 -0.026933564 0.052433975 0.01624275 -0.045730814 0.032032575
0.015872106 -0.12381797 0.11004862 -0.13938549 0.1693221 0.14983931 0.11010796 -0.014920084
-0.18753856 -1.5786646e-38 -0.12776712 -0.009108429 0.020708825 0.21576868 0.05768847 0.21972363
-0.024610909 0.1753276 0.014213775 -0.07852321 -0.11937785 0.20837522 0.01612566 0.119507685
-0.112297155 -0.077312484 0.083795525 0.05573223 -0.013388766 0.11153801 0.081398316 0.1765703
0.057440322 0.009216247 0.15165488 0.20572263 0.058944594 0.08165299 0.01077568 0.08571327
-0.18313703 -0.14822522 0.02286795 9.2194e-40 0.1427178 -0.0049862037 0.008506181 0.22184412
0.026030326 0.014766922 -0.22106157 -0.14527765 -0.17944819 0.012757875 0.020072602 0.10176779
0.011691413 -0.04589824 0.19637805 -0.20621996 0.06525762 0.023927405 0.029370489 0.21786155
-0.14186946 0.07088321 -0.06471867 -0.22389762 0.1502659 0.105036676 0.018573053 -0.1557345
0.15273708 0.026083214 -0.07282319 0.05166902 0.05507883 -0.057132367 0.018767271 0.10136001
0.06653811 0.13702764 -0.036346182 -3.656608e-05 -0.044044442 -0.10736852 0.006912205 -0.100639895
-0.011481963 0.09162342 -0.0016843526 0.00889951 -0.117324784 -0.068639286 -0.13894714 0.06646274
00000000: d147 b63c ff7b 34be 717c f63d ec2a a13d
00000010: b350 ca3d a38b ef3b aa8a df3d 1240 6f3d
00000020: d93f 13be c6f1 aa3b a9ab 383e e1d0 8f3c
00000030: df90 003d 9b85 603e 39de 38be 4c16 96bc
00000040: a39f 63be ba6b f13d ace6 5e3c 3639 14be
00000050: fff0 e93d acf6 1fbe 7869 453e 509c 0b3e
00000060: 2589 f33d 9ece 903d bd6b 1b3c c7a3 dcbc
00000070: 02c5 563d 840f 853c 3c50 3bbd 9734 033d
00000080: 3806 823c 4794 fdbd 2c61 e13d 12bb 0ebe
00000090: c662 2d3e 7a6f 193e 4880 e13d 5e73 74bc
000000a0: 1c0a 40be bfe6 ab80 62d5 02be 853b 15bc
000000b0: 8ea5 a93c 77f2 5c3e bf4a 6c3d 3bff 603e
000000c0: d19c c9bc 1489 333e e5e0 683c c7d0 a0bd
000000d0: 607c f4bd 5060 553e f619 843c 72c0 f43d
000000e0: 0dfc e5bd 0256 9ebd fd9c ab3d 7b47 643d
000000f0: 8e5c 5bbc 0a6e e43d 29b4 a63d d8ce 343e
00000100: 8b46 6b3d beff 163c 6b4b 1b3e f4a8 523e
00000110: e36f 713d af39 a73d 7a8c 303c 708a af3d
00000120: 4688 3bbe 5ac8 17be 9155 bb3c fe09 0a00
00000130: 9d24 123e 4f63 a3bb 825d 0b3c 1b2b 633e
00000140: 8d3d d53c f6f0 713c f75d 62be aac3 14be
00000150: 44c1 37be 6806 513c 4c6f a43c a26b d03d
00000160: 578d 3f3c cbff 3bbd 5417 493e 532b 53be
00000170: c9a5 853d 6803 c43c 619a f03c 1917 5f3e
00000180: 3a46 11be 372b 913d 398b 84bd 6b45 65be
00000190: 4edf 193e 781d d73d 8426 983c dd78 1fbe
000001a0: 1c67 1c3e 77ac d53c 5324 95bd e5a2 533d
000001b0: 579a 613d a103 6abd d2bd 993c d695 cf3d
000001c0: 2245 883d f950 0c3e bcdf 14bd 885e 19b8
000001d0: f267 34bd 07e4 dbbd c77f e23b 4a1c cebd
000001e0: d81e 3cbc 0fa5 bb3d 7fc5 dcba 40cf 113c
000001f0: fa47 f0bd c192 8cbd 2948 0ebe 9e1d 883d

ligandEncoder.convLayers.0.edgeLinear.weight f4 [128, 6]
0.039243504 0.007443965 0.0018342293 -0.022420395 -0.0030929088 -0.0078367945 -0.16597895 0.16389938
0.0036060929 0.34409815 0.32009327 0.3493494 0.34809738 -0.20614214 -0.005279143 0.030095201
-0.09901079 -0.2392693 -0.0654166 -0.16562963 -0.14507331 0.085479245 -0.2787066 -0.030188965
-0.18482994 -0.04342745 0.00076576526 0.22765881 -0.062779404 -0.19548053 0.0024716663 0.010556067
0.016265376 0.0067871236 -0.021278163 -0.03350044 -0.11122396 0.0953915 0.045788333 0.004514813
0.0892776 -0.11341675 -0.0051169307 0.35181138 0.016125605 0.011338952 0.19949529 0.36617923
-0.017300982 -0.107450485 0.06741786 0.03273172 -0.06915072 -0.16499996 0.0061394153 0.021703983
-0.028487168 -0.0032959883 0.0052667125 -0.0035369392 0.3300464 -0.22163278 -0.033447225 0.33853078
-0.017213747 -0.12349957 -0.03249604 -0.007712197 -0.0024779825 0.094055645 0.026846118 0.038542036
-0.04350931 -0.023787888 -0.006351496 0.12168343 0.05526904 0.09404164 0.2547463 0.22839431
0.029814243 -0.12158602 0.015957445 0.3037032 -0.24144693 0.10180644 0.0049560536 0.11483994
-0.0017132717 0.13257977 -0.0037123081 0.01969992 -0.0083014555 0.058374323 0.034153305 0.014724186
0.19437754 -0.23389372 -0.050456528 -0.23107234 0.1382852 0.2557368 0.14659454 -0.3665945
-0.113216296 0.23338732 -0.011668402 0.28158593 0.007885856 0.01106513 0.0063044433 0.009100113
0.011261007 -0.09387189 0.27532822 0.028690733 0.11016263 0.079749905 0.26234573 0.050091803
-0.24022128 0.060952358 0.019043876 0.13320252 0.15217593 -0.09701703 -0.1435511 0.067050785
-0.0045269174 -0.08348789 0.061709724 0.25949922 0.21969503 0.14518589 -0.07024551 0.021118863
0.19460663 -0.21466653 0.15737793 -0.104646124 -0.036016453 0.00933299 0.25211382 -0.013255316
-0.10388747 0.18505411 -0.080234125 -0.35347396 0.17274193 -0.14847827 -0.20195675 -0.051918507
0.0312976 0.25192922 -0.25099823 -0.007660519 0.007088061 0.019762257 0.0024108824 0.0013716137
0.0040947 -0.0007726776 0.34800336 -0.27828667 0.052473523 0.23262857 -0.26840314 -0.0341601
0.37455282 -0.41042337 -0.12240629 -0.069858655 0.24788631 0.07553332 0.0061768885 0.02085839
-0.008847383 -0.00014832667 -0.0075697843 -0.04452451 -0.037680328 0.17939785 -0.15807462 -0.24532968
0.15014398 0.25677118 0.057826404 -0.2989165 -0.01786506 0.08364263 0.3055242 -0.18025807
-0.03158869 0.04708658 -0.03218966 0.067740045 0.048535246 0.03541258 -0.2207077 -0.19549397
0.017203206 -0.36882332 0.3313872 0.10915345 -0.014481584 0.03051709 -8.75369e-40 0.10623635
0.30569744 0.37722856 0.23108019 0.016910221 -5.429264e-11 0.02675249 0.08470939 0.30746642
0.1803008 0.03436738 -0.01402366 0.2098673 0.1822483 0.010710407 0.26836225 0.160604
-0.033475664 0.26453066 -0.0809785 -0.103769876 -0.13889547 -0.21219915 0.037331797 0.16405562
0.25653717 0.027009854 0.15416771 -0.25798327 0.04045387 0.21829261 0.3219659 -0.104153045
0.24403845 -0.14216715 -0.04074647 -0.37884417 0.33375573 0.036388014 -1.8452232e-38 1.080194e-39
-5.31822e-39 1.263736e-39 1.205589e-39 1.820182e-39 -0.18439934 0.10779429 0.03988125 0.008901231
00000000: ccbd 203d 81ec f33b 866a f03a faaa b7bc
00000010: 66b2 4abb e665 00bc 63f6 29be 3dd5 273e
00000020: 3354 6c3b a22d b03e 44e3 a33e eddd b23e
00000030: d239 b23e ed16 53be a9fc acbb 368a f63c
00000040: 2bc6 cabd 0303 75be 23f9 85bd d09a 29be
00000050: 198e 14be be0f af3d a2b2 8ebe d94e f7bc
00000060: 0f44 3dbe fbe0 31bd a3bd 483a 641f 693e
00000070: 7d92 80bd 0c2c 48be aefb 213b 5bf3 2c3c
00000080: f73e 853c 8566 de3b 8b4f aebc c237 09bd
00000090: 63c9 e3bd 9e5c c33d 8c8c 3b3d fff0 933b
000000a0: 2dd7 b63d 0b47 e8bd edab a7bb 9f20 b43e
000000b0: d819 843c 03c7 393c 7e48 4c3e d87b bb3e
000000c0: caba 8dbc 000f dcbd 6012 8a3d b211 063d
000000d0: e59e 8dbd c0f5 28be 262d c93b 8dcc b13c
000000e0: ec5d e9bc 8201 58bb 6394 ac3b fecb 67bb
000000f0: d7fb a83e b4f3 62be f5ff 08bd e853 ad3e
00000100: d803 8dbc 58ed fcbd 911a 05bd 99b6 fcbb
00000110: a665 22bb 3fa0 c03d 64ec db3c 41de 1d3d
00000120: d136 32bd d1de c2bc 3620 d0bb 2a35 f93d
00000130: ca61 623d e798 c03d 1b6e 823e 33e0 693e
00000140: 003d f43c 1702 f9bd 30b9 823c fc7e 9b3e
00000150: dd3d 77be e57f d03d 6466 a23b 3431 eb3d
00000160: dc8f e0ba fec2 073e 324a 73bb ba61 a13c
00000170: d402 08bc ea19 6f3d 56e4 0b3d b63d 713c
00000180: e80a 473e d681 6fbe 81ab 4ebd 3a9e 6cbe
00000190: a39a 0d3e efef 823e e11c 163e 46b2 bbbe
000001a0: f2dd e7bd 16fd 6e3e d32c 3fbc 082c 903e
000001b0: ad33 013c 854a 353c 8195 ce3b a418 153c
000001c0: 1680 383c e83f c0bd d2f7 8c3e d408 eb3c
000001d0: f29c e13d eb53 a33d 2e52 863e 102d 4d3d
000001e0: 91fc 75be 2ea9 793d e701 9c3c 3e66 083e
000001f0: 02d4 1b3e ddb0 c6bd 0fff 12be ec51 893d
00000200: 8956 94bb b3fb aabd 56c3 7c3d 15dd 843e
00000210: bcf7 603e 9cab 143e e1dc 8fbd 7701 ad3c
00000220: f646 473e 8bd1 5bbe ae27 213e b550 d6bd
00000230: fd85 13bd 66e9 183c 1015 813e d32c 59bc
00000240: f4c2 d4bd d37e 3d3e ca51 a4bd 8afa b4be
00000250: 43e3 303e b00a 18be c0cd 4ebe 80a8 54bd
00000260: ea31 003d defc 803e d782 80be 1705 fbbb
00000270: f742 e83b 75e4 a13c e5ff 1d3b b8c7 b33a
00000280: d52c 863b 848d 4aba 7f2d b23e 977b 8ebe
00000290: 7aee 563d 2f36 6e3e 236c 89be 76eb 0bbd
000002a0: 63c5 bf3e 0323 d2be 26b0 fabd 0e12 8fbd
000002b0: e9d5 7d3e 37b1 9a3d 7f67 ca3b 37df aa3c
000002c0: 9df4 10bc 2388 1bb9 f40b f8bb 555f 36bd
000002d0: b056 1abd 12b4 373e 50de 21be b437 7bbe
000002e0: 58bf 193e 8377 833e 61db 6c3d 950b 99be
000002f0: bf59 92bc d44c ab3d ab6d 9c3e 9295 38be
00000300: 2463 01bd dcdd 403d 4ed9 03bd 4bbb 8a3d
00000310: e5cc 463d c80c 113d 3301 62be 922f 48be
00000320: bded 8c3c 69d6 bcbe 95ab a93e d88b df3d
00000330: 2a44 6dbc fafe f93c 2c88 0980 7292 d93d
00000340: 6084 9c3e 1a24 c13e 49a0 6c3e 4e87 8a3c
00000350: 14c8 6eae 0a28 db3c 1e7c ad3d 3d6c 9d3e
00000360: c6a0 383e cfc4 0c3d 7ec3 65bc 74e7 563e
00000370: 4c9f 3a3e b47a 2f3c c766 893e 6075 243e
00000380: c71d 09bd 9070 873e 0ed8 a5bd 4d85 d4bd
00000390: 9d3a 0ebe bc4a 59be 3ae9 183d 32fe 273e
000003a0: d758 833e c543 dd3c 24de 1d3e 6216 84be
000003b0: f5b2 253d 1988 5f3e b7d8 a43e 314e d5bd
000003c0: 37e5 793e 4494 11be c5e5 26bd ddf7 c1be
000003d0: 08e2 aa3e 990b 153d 51ed c880 24c3 0b00
000003e0: 09e9 3980 c8c2 0d00 b120 0d00 edd1 1300
000003f0: 2ed3 3cbe 41c3 dc3d 865a 233d 78d6 113c

ligandEncoder.convLayers.0.edgeLinear.bias f4 [128]
0.022251146 0.26944536 0.044317774 -0.20463963 -0.085136205 0.007310359 0.15432303 -0.060254816
0.10859791 0.0052168258 0.026756564 0.017555594 0.031388175 -0.021995164 -0.07192188 0.12827136
0.1763506 0.10674903 0.0136047695 0.31135723 -0.35955235 -0.016660888 -0.25436345 0.058867685
-0.07914413 0.279134 0.009486119 -0.21856697 0.07806572 0.016242761 0.09934188 0.3793905
0.015872046 0.12979746 -0.21246417 0.13252312 -0.19539921 0.1857683 -0.29896566 -0.14009926
-0.12926747 -1.5786646e-38 0.1920239 -0.30429694 -0.20140655 -0.25001335 0.03204086 0.16047499
0.047422826 0.07250332 0.014213774 0.007655488 -0.2020324 -0.36200047 0.22315396 -0.24868618
0.2264012 -0.07007837 0.21538049 -0.21474761 0.14955416 0.15297462 -0.05400399 -0.14577454
-0.19612798 0.31982607 0.123769775 -0.10874134 0.11533769 0.052972652 0.010775684 -0.23026371
0.34737268 -0.29985505 0.022867892 9.2194e-40 0.33683166 0.16684783 0.008506206 0.2179674
-0.1153992 0.014766885 0.18491308 0.37754923 0.25736535 0.012757974 0.097388454 -0.025741044
0.011691434 0.32192877 -0.20371987 0.36504388 0.18979481 0.023927337 0.12301593 -0.095556214
-0.16517144 0.17978072 -0.056601193 0.184271 0.27788514 -0.25674695 0.012756391 -0.054095663
0.259084 -0.060020324 0.1172883 -0.0064725033 0.18516505 -0.13026212 0.018767249 0.053112283
0.12447375 -0.31402448 0.138978 -3.659598e-05 0.110012345 0.15674002 0.0069121756 -0.27335787
-0.01148198 0.057436842 -0.0016843526 0.14057247 0.09824995 0.177379 -0.3324104 0.0664627
00000000: 0948 b63c bef4 893e 8e86 353d 0d8d 51be
00000010: e45b aebd bc8b ef3b db06 1e3e c1cd 76bd
00000020: 9568 de3d e8f1 aa3b 9530 db3c c0d0 8f3c
00000030: e390 003d 342f b4bc c74b 93bd 9159 033e
00000040: 4095 343e 3c9f da3d 8ae6 5e3c 376a 9f3e
00000050: 3f17 b8be 6a7c 88bc ed3b 82be 3e1f 713d
00000060: 5116 a2bd a7ea 8e3e ab6b 1b3c 05d0 5fbe
00000070: ece0 9f3d 8a0f 853c c173 cb3d 793f c23e
00000080: 1806 823c a0e9 043e 3590 59be 24b4 073e
00000090: bb16 48be 0c3a 3e3e 0712 99be 2e76 0fbe
000000a0: b15e 04be bfe6 ab80 eaa1 443e cfcc 9bbe
000000b0: 853d 4ebe c001 80be 473d 033d 8e53 243e
000000c0: 703e 423d 9f7c 943d e4e0 683c e3da fa3b
000000d0: 95e1 4ebe 2058 b9be 7982 643e 97a7 7ebe
000000e0: b7d5 673e 4085 8fbd b48c 5c3e cce6 5bbe
000000f0: ba24 193e 61a5 1c3e 4a33 5dbd ec45 15be
00000100: c6d5 48be 3ec0 a33e 027b fd3d c8b3 debd
00000110: 2b36 ec3d daf9 583d 7f8c 303c 40ca 6bbe
00000120: d5da b13e 9a86 99be 7255 bb3c fe09 0a00
00000130: 3375 ac3e 28da 2a3e 9d5d 0b3c d932 5f3e
00000140: 6a56 ecbd cef0 713c db59 3d3e 224e c13e
00000150: 64c5 833e d206 513c 9973 c73d e2de d2bc
00000160: 6e8d 3f3c d9d3 a43e f19b 50be 08e7 ba3e
00000170: 9259 423e 4303 c43c c7ef fb3d fab2 c3bd
00000180: b422 29be 7018 383e a7d6 67bd 89b1 3c3e
00000190: f646 8e3e 5674 83be 2f00 513c 6a93 5dbd
000001a0: a8a6 843e dfd7 75bd d934 f03d 4b17 d4bb
000001b0: e89b 3d3e 6f63 05be c6bd 993c 448c 593d
000001c0: 18ec fe3d d1c7 a0be 4050 0e3e a27e 19b8
000001d0: 274e e13d 7580 203e 887f e23b 90f5 8bbe
000001e0: ea1e 3cbc e542 6b3d 7fc5 dcba 3bf2 0f3e
000001f0: 4537 c93d d7a2 353e b231 aabe 991d 883d

ligandEncoder.convLayers.1.linear.weight f4 [128, 128]
-0.003928432 -0.003441345 0.0029959125 -0.0014286365 -0.061178938 0.0026282135 -0.023345927 0.027577702
0.01327495 -0.009174348 -0.004700799 0.0019844028 0.0019816766 -0.016843013 -0.03265014 -0.014889644
-0.048397046 0.042842742 0.0011675645 -0.012376611 -0.018811692 -0.011178639 0.04007737 -0.04667683
0.014375701 0.033128165 -0.0035240978 0.035479903 0.03539187 0.00013980462 -0.026027827 -0.016913671
-0.0035924632 0.03553297 -0.029542586 0.040166285 -0.0002838382 -0.0066642202 0.03489324 -0.04646661
0.032076046 0.012197585 -0.008870072 -0.0059723672 -0.02267991 0.03578684 0.009189456 -0.005996308
-0.011183649 -0.000789945 -0.0022631362 0.009313298 0.005001962 -0.024632383 -0.005203616 0.016025437
-0.027930696 -0.044565853 -0.00947204 -0.0003427136 0.018926982 -0.018123962 -0.034614567 -0.028212037
0.008337455 0.038845178 -0.0061269575 0.029104209 -0.010639671 0.031341664 -0.006056261 -0.008694907
-0.009170223 0.038296666 0.00028785333 0.0020144316 0.014272241 0.015421462 0.0005864038 -0.019008359
-0.00066375744 0.0005321021 0.012334446 -0.0013188986 0.02383105 0.0022908421 0.03467553 0.019960633
0.00054995064 0.013262352 0.004917931 -0.008798378 0.03034519 0.0024475425 -0.019601101 -0.035090286
-0.0071511967 -0.0025963548 0.009673593 0.003269576 0.027572956 0.026716352 -0.0016255636 0.029214855
-0.005129002 -0.016944224 0.0018257538 -0.005594224 -0.0008170911 0.0416502 0.0059781093 0.006737986
-0.007582065 0.051587567 -0.009612604 0.0012591525 -0.0035151022 0.013806458 -0.0041211946 -0.018135611
0.0005741663 -0.024653487 -0.0076830736 -0.02058258 0.011632936 -0.06704886 0.05786076 0.001717719
0.024093509 0.17776701 -0.01062174 -0.20622288 0.11764052 0.014657868 -0.09857349 -0.0077230223
-0.005631341 -0.08907957 0.044033196 0.0010780907 0.0047672014 0.057948552 -9.98759e-05 0.016245656
0.049990382 0.024970427 -0.015550152 0.25707665 -0.005480906 -0.033605453 -0.088364616 -0.06201256
-0.2312431 -0.017473657 0.0011258418 0.083956726 0.025282025 0.002678442 0.053852182 -0.023790766
-0.020305214 -0.09752438 -0.03786007 -0.0076393792 0.029474836 -0.014074953 -0.06175495 0.02063643
-0.1611969 -0.010102573 0.066668935 -0.10432824 0.05278552 0.02332638 -0.048531402 0.15595393
0.0032646137 -0.016870439 -0.06411406 -0.0023362003 -0.18143737 -0.18350922 0.018200044 0.14942396
-0.18777975 0.09193303 0.0337401 -0.08977671 -0.013530354 0.029579436 -0.0047665513 0.03594308
0.06770853 0.14061639 0.0048075714 0.02048434 -0.01931998 0.031991538 -0.014084196 0.00076544355
0.02925191 0.039238513 -0.01089523 -0.07768917 0.0019480353 0.2314561 -0.006395902 -0.041603096
-0.039092403 0.011643578 -0.055906672 0.03221176 -0.07177597 -0.058400985 0.059669435 -0.023802362
0.004868622 0.009378857 0.047388464 0.038048007 -0.029244356 -0.13263263 0.020766143 0.015736306
0.08201461 0.08249515 -0.008218942 -0.0011578199 0.005770254 0.0053967256 0.019875124 0.15101393
0.016445072 0.04891179 -0.05312648 -0.19548094 0.07607522 -0.0022006559 -0.04425809 0.028543733
-0.029306946 -0.08073698 -0.028074648 0.018125225 0.03160253 0.012826136 -0.010297321 0.038627986
0.018339979 -0.02630109 -0.031788003 0.036355957 -0.04615885 0.04438736 -0.0024260948 0.006816957
00000000: 13ba 80bb 3088 61bb 1257 443b 1641 bbba
00000010: c496 7abd 1b3e 2c3b f53f bfbc a2ea e13c
00000020: 2d7f 593c 0150 16bc 2909 9abb c10c 023b
00000030: 04df 013b 5cfa 89bc 27bc 05bd b2f3 73bc
00000040: fb3b 46bd df7b 2f3d f708 993a 45c7 4abc
00000050: fa1a 9abc 9c26 37bc 2b28 243d 3430 3fbd
00000060: 0f88 6b3c 66b1 073d 8df4 66bb 6053 113d
00000070: 11f7 103d 8498 1239 4f38 d5bc 8a8e 8abc
00000080: 886f 6bbb 058b 113d 4b03 f2bc 6785 243d
00000090: 1ed0 94b9 885f dabb 37ec 0e3d c653 3ebd
000000a0: 2c62 033d 61d8 473c c753 11bc d9b3 c3bb
000000b0: 38cb b9bc 3995 123d 5f8f 163c ad7c c4bb
000000c0: a03b 37bc 5014 4fba 2051 14bb ce96 183c
000000d0: 80e7 a33b dac9 c9bc 1883 aabb c747 833c
000000e0: eace e4bc af8a 36bd 9e30 1bbc 3eae b3b9
000000f0: c20c 9b3c b478 94bc 01c8 0dbd ee1c e7bc
00000100: d299 083c 1f1c 1f3d a5c4 c8bb f36b ee3c
00000110: 0452 2ebc 1e60 003d 9973 c6bb 1575 0ebc
00000120: b43e 16bc f7dc 1c3d 05eb 9639 8e04 043b
00000130: 1ed6 693c 4daa 7c3c e5b8 193a 6bb7 9bbc
00000140: 0200 2eba c47c 0b3a 6b16 4a3c e5de acba
00000150: 5639 c33c f421 163b ee07 0e3d 7b84 a33c
00000160: 902a 103a 564a 593c 9826 a13b 1227 10bc
00000170: 7a96 f83c f366 203b 7d92 a0bc d5ba 0fbd
00000180: 9654 eabb 9b27 2abb fd7d 1e3c 6246 563b
00000190: aee0 e13c 40dc da3c dd10 d5ba fe53 ef3c
000001a0: 3011 a8bb 9dce 8abc 224e ef3a c14f b7bb
000001b0: 0e32 56ba 6699 2a3d 04e4 c33b 53ca dc3b
000001c0: f972 f8bb 7c4d 533d 2f7e 1dbc 260a a53a
000001d0: a15d 66bb 7b34 623c 160b 87bb 2291 94bc
000001e0: a683 163a 1cf6 c9bc 4bc2 fbbb cc9c a8bc
000001f0: 1298 3e3c ea50 89bd 67ff 6c3d 1625 e13a
00000200: c05f c53c 8e08 363e ce06 2ebc 172c 53be
00000210: 83ed f03d 8e27 703c e6e0 c9bd 6811 fdbb
00000220: 1d87 b8bb 596f b6bd 275c 343d b94e 8d3a
00000230: 2f36 9c3b 765b 6d3d 7774 d1b8 9c15 853c
00000240: b7c2 4c3d c88e cc3c 11c6 7ebc 8d9f 833e
00000250: 2c99 b3bb dfa5 09bd 82f8 b4bd e200 7ebd
00000260: feca 6cbe ea24 8fbc fb90 933a 81f1 ab3d
00000270: 401c cf3c cd88 2f3b 1b94 5c3d dae4 c2bc
00000280: 1f57 a6bc ddba c7bd 2913 1bbd c253 fabb
00000290: 3675 f13c a29a 66bc c2f2 7cbd bb0d a93c
000002a0: cd10 25be 4385 25bc b989 883d 0baa d5bd
000002b0: a135 583d f716 bf3c ddc8 46bd 63b2 1f3e
000002c0: 21f3 553b e033 8abc 3b4e 83bd f01a 19bb
000002d0: b8ca 39be d7e9 3bbe 4218 953c 9802 193e
000002e0: 5649 40be 6247 bc3d 0f33 0a3d dadc b7bd
000002f0: 6bae 5dbc 9350 f23c bb30 9cbb 0d39 133d
00000300: c5aa 8a3d befd 0f3e d588 9d3b c6ce a73c
00000310: ef44 9ebc 8f09 033d 66c1 66bc 0ca8 483a
00000320: b4a1 ef3c 90b8 203d e881 32bc 801b 9fbd
00000330: 3855 ff3a d402 6d3e b794 d1bb 0268 2abd
00000340: 5b1f 20bd b5c4 3e3c 65fe 64bd 7af0 033d
00000350: 48ff 92bd df35 6fbd f067 743d 2cfd c2bc
00000360: f688 9f3b c7a9 193c 681a 423d 3ad8 1b3d
00000370: dc91 efbc d9d0 07be c21d aa3c 6de9 803c
00000380: 47f7 a73d 38f3 a83d bea8 06bc fdc1 97ba
00000390: 6614 bd3b 04d7 b03b 28d1 a23c 65a3 1a3e
000003a0: d1b7 863c bb57 483d 279b 59bd 282c 48be
000003b0: 53cd 9b3d e138 10bb f947 35bd 8cd4 e93c
000003c0: 1f15 f0bc 6e59 a5bd cefc e5bc 5a7b 943c
000003d0: a871 013d b724 523c 18b6 28bc 6138 1e3d
000003e0: b93d 963c 6275 d7bc 2334 02bd fce9 143d
000003f0: 1011 3dbd 85cf 353d 1eff 1ebb c860 df3b

ligandEncoder.convLayers.1.linear.bias f4 [128]
-0.013929182 0.023081364 -0.029652033 -0.047132242 -0.027006872 0.0023922534 0.0023741561 0.00575357
-0.043156404 0.014901959 -0.033056885 -0.052618816 -0.024707789 -0.07266179 -0.0067252624 -0.024661222
-0.0044023017 0.005970442 -0.017010361 -0.0093296515 -0.06777547 -0.08391463 -0.026512248 -0.05761711
-0.00392664 0.03673595 -0.018157696 -0.027431993 0.057516765 -0.0012470544 -0.041295327 0.0019013173
0.007919491 -0.009005539 -0.006662607 0.020458931 0.0040873564 0.042222932 -0.049945347 -0.009384174
-0.0253081 0.02681936 -0.026503209 -0.010543088 -0.051778033 0.012825115 -0.08831747 -0.043567773
-0.00011230939 -0.014818132 -0.02859491 -0.031389546 -0.04590995 -0.011312233 -0.02572532 -0.032087088
-0.015342502 0.024803381 -0.065000854 -0.006023052 -0.021339385 -0.06627568 -0.04314369 -0.0028497397
-0.040071942 -0.014814265 0.0105708605 -0.014548679 0.0148722185 -0.05323751 0.02818 -0.047956944
0.036806572 -0.0685732 0.04859371 -0.0026043444 0.00025466358 -0.11080704 0.0026319555 0.044456296
-0.024742749 -0.07005789 -0.019667663 -0.012571078 -0.0524104 -0.027863646 0.0434827 -0.0051095495
-0.005773806 -0.017995333 -0.032142166 0.03445839 0.051984917 -0.083079726 -0.004193828 -0.02670268
-0.025163205 -0.030994438 0.001315062 0.037409656 -0.010120409 -0.01628582 -0.048177168 0.06560285
-0.024407951 -0.021509962 0.050612543 0.016634507 -0.015983138 -0.039929014 -0.017761888 -0.028911086
-0.02209616 0.031963054 -0.04253383 -0.013233068 -0.020118384 0.011708234 -0.0082942685 0.028508296
-0.025031686 0.003950375 -0.0061934274 -0.03491998 -0.006376827 -0.0644505 -0.02221805 -0.0032895077
00000000: 3937 64bc 2115 bd3c d2e8 f2bc bd0d 41bd
00000010: 843d ddbc 5ac7 1c3b bb97 1b3b 7188 bc3b
00000020: c5c4 30bd 5927 743c a866 07bd d486 57bd
00000030: fd67 cabc b4cf 94bd 975f dcbb 5506 cabc
00000040: 2f41 90bb b3a3 c33b 5059 8bbc 65db 18bc
00000050: decd 8abd 6fdb abbd 3730 d9bc ebff 6bbd
00000060: 0bab 80bb 6f78 163d 73bf 94bc 0fb9 e0bc
00000070: b396 6b3d 3474 a3ba 4a25 29bd 9f35 f93a
00000080: c1c0 013c f88b 13bc 0052 dabb 7d99 a73c
00000090: 3bef 853b f4f1 2c3d 7e93 4cbd 14c0 19bc
000000a0: ef52 cfbc 46b4 db3c 421d d9bc ebbc 2cbc
000000b0: 3415 54bd 6e20 523c cadf b4bd 1f74 32bd
000000c0: a587 ebb8 c0c7 72bc df3f eabc 5392 00bd
000000d0: 120c 3cbd f256 39bc e8bd d2bc c06d 03bd
000000e0: 1e5f 7bbc 7630 cb3c 2b1f 85bd 065d c5bb
000000f0: efcf aebc 8bbb 87bd 70b7 30bd b3c2 3abb
00000100: 7a22 24bd 88b7 72bc 6731 2d3c 955d 6ebc
00000110: 9baa 733c 930f 5abd bed9 e63c 806e 44bd
00000120: 7dc2 163d 1b70 8cbd 330a 473d a6ad 2abb
00000130: 5e84 8539 cdee e2bd e37c 2c3b ce17 363d
00000140: 4eb1 cabc 837a 8fbd 141e a1bc ecf6 4dbc
00000150: 4aac 56bd 4d42 e4bc ea1a 323d 026e a7bb
00000160: 3232 bdbb f36a 93bc 81a7 03bd 3e24 0d3d
00000170: 23ee 543d b425 aabd 616c 89bb 94bf dabc
00000180: 1123 cebc 0ce8 fdbc 295e ac3a de3a 193d
00000190: 12d0 25bc d769 85bc 6c55 45bd c95a 863d
000001a0: 2ff3 c7bc a935 b0bc 194f 4f3d 1745 883c
000001b0: 12ef 82bc 9b8c 23bd 6181 91bc f1d6 ecbc
000001c0: 0203 b5bc b1eb 023d f437 2ebd 83cf 58bc
000001d0: 4fcf a4bc e5d3 3f3c afe4 07bc 3b8a e93c
000001e0: 400f cdbc 2672 813b 3cf2 cabb 4108 0fbd
000001f0: b4f4 d0bb a0fe 83bd a102 b6bc c894 57bb

ligandEncoder.convLayers.1.edgeLinear.weight f4 [128, 6]
0.03062188 -0.017503304 -0.0023281781 -0.0109965205 -0.07033572 0.012454492 0.0141847385 -0.0024997978
-0.012856857 0.110335514 0.10414404 -0.009376193 0.00825521 -0.018974105 0.005463383 -0.03576076
-0.012498717 -0.037387095 -0.03528655 -0.026190845 0.008882142 0.081921466 -0.046991337 0.23537064
0.020267544 0.010190389 -0.0010438357 0.05786443 0.051349636 0.13052624 0.055034373 0.02116176
0.010383044 0.04580861 -0.0040124576 0.08452783 -0.05567859 -0.009414876 -2.0763634e-16 -0.10447285
-0.010002852 -0.031816535 0.076233596 0.016886674 0.010755728 0.026710987 0.15098187 -0.19513443
0.020911383 0.038210854 0.021705937 0.21021177 -0.028632196 0.19860035 0.059106246 0.017286
-0.00206343 -0.03246919 0.12887602 0.13697815 -0.00046326942 -0.01762013 0.0033942286 -0.012252591
-0.030127455 -0.03118557 -0.10710546 -0.037593413 0.0014177382 0.02806457 -0.123386435 -0.16680887
-0.034633756 0.0032900013 -0.00020085493 0.05615162 -0.10043691 0.05644745 -0.14823397 -0.014401698
-0.00834161 0.19468321 -0.042072956 0.20068364 0.09901306 0.03705949 -0.005979805 0.034760885
0.07759739 -0.009492436 -0.018380431 -0.0047484776 -0.0022302554 -0.007787546 -0.017344134 -0.024683805
0.007722349 -0.008088359 -0.003054173 -0.0033550696 0.0018060547 -0.0048504025 0.029727234 -0.0030233571
-0.0026161678 0.041499425 0.03816952 0.011173187 -0.0133379465 0.005216732 -0.007083488 0.012746384
-0.012533667 -0.040057003 0.05724899 0.04050309 7.582613e-07 -0.033741307 -0.061311528 0.027763123
-0.050215773 0.043812692 0.0012651889 -0.112959474 0.100686565 0.0965992 0.16614404 -0.09891406
0.016071653 0.050686125 0.048289463 -0.068217814 0.020667812 0.014490998 0.005893002 0.034144834
0.13677672 -0.11286706 -0.22083792 -0.0064852047 0.0020824608 -0.078080684 -0.20936267 0.047066595
0.036256302 -0.008021631 0.0015898298 -0.054792874 -0.021409895 -0.013132491 0.22008173 0.07538625
0.001739464 -0.09529716 0.042593136 -0.177678 -0.0016182073 -0.021258876 0.010999755 -0.008120229
-0.007886591 0.000824307 -0.008192612 -0.014297765 -5.338064e-39 -0.009762314 -0.0265657 -0.01836705
0.25311148 -0.0789705 -0.013191311 -0.014225947 -0.050881464 -0.12728699 -0.0027456654 0.0051793274
0.00051411986 0.0032653457 0.0015056534 -0.006690489 -0.037367046 0.017353851 -0.0035868594 -0.0147710545
-0.033864778 -0.0074516516 0.015937993 -0.0027097147 -0.010818209 0.038673013 0.011871397 0.002181937
-0.05044714 -0.013715825 0.00043738136 0.03251565 0.00076258933 -0.021261897 0.006930906 -0.008247198
0.002681553 -0.019783499 0.006458405 -0.0029028042 -0.1074695 0.023292016 -1.7520616e-08 -0.18720907
-0.2892908 0.10543331 0.14620714 -0.007818834 0.00015451164 0.010768272 -0.09418409 -0.08397059
0.1400944 -0.022446861 -0.0012474791 -0.013153827 -0.016088374 -0.13683237 -0.069379754 0.030519856
0.009007538 0.04782493 0.023884976 -0.13689561 0.25679204 -0.049334135 -0.0018770179 -0.018990044
0.07107003 0.21054149 0.07872597 -0.092617586 0.0032638817 0.032279693 0.098858036 0.24536428
-0.18074542 0.05640951 -0.011399504 -0.035243254 0.1675017 0.14510176 0.09301159 -0.0241144
0.0010006869 0.0017930357 -0.025991231 -0.12542827 -0.012828888 -0.026805976 0.001107526 -0.014429003
00000000: bdda fa3c 1763 8fbc 5994 18bb c02a 34bc
00000010: 2d0c 90bd ed0d 4c3c 1b67 683c a6d3 23bb
00000020: 91a5 52bc 96f7 e13d 7849 d53d 9b9e 19bc
00000030: dc40 073c 956f 9bbc 2e06 b33b e079 12bd
00000040: 6bc7 4cbc 3623 19bd a188 10bd 2f8e d6bc
00000050: 6786 113c 71c6 a73d fd79 40bd 0005 713e
00000060: 1f08 a63c 97f5 263c 50d1 88ba 4103 6d3d
00000070: ff53 523d aca8 053e b96b 613d 6d5b ad3c
00000080: a51d 2a3c cfa1 3b3d ef7a 83bb ed1c ad3d
00000090: 3c0f 64bd da40 1abc 6e63 6fa5 ddf5 d5bd
000000a0: 01e3 23bc 0e52 02bd 5c20 9c3d ec55 8a3c
000000b0: cb38 303c 00d1 da3c fe9a 1a3e 52d1 47be
000000c0: 594e ab3c fc82 1c3d a6d0 b13c c141 573e
000000d0: 118e eabc e45d 4b3e 6419 723d 5f9b 8d3c
000000e0: 9c3a 07bb 6afe 04bd 13f8 033e 0044 0c3e
000000f0: f8e2 f2b9 1758 90bc b571 5e3b 17bf 48bc
00000100: dacd f6bc e178 ffbc 1b5a dbbd 8dfb 19bd
00000110: 66d3 b93a abe7 e53c 07b2 fcbd f2cf 2abe
00000120: 20dc 0dbd 109d 573b 969c 52b9 3eff 653d
00000130: deb1 cdbd 7135 673d a5ca 17be 19f5 6bbc
00000140: 40ab 08bc 095b 473e b154 2cbd 0380 4d3e
00000150: 5cc7 ca3d b1cb 173d 3df2 c3bb 6e61 0e3d
00000160: 61eb 9e3d 2a86 1bbc 8f92 96bc 1e99 9bbb
00000170: 7a29 12bb ac2e ffbb 4915 8ebc b135 cabc
00000180: c20b fd3b 0985 04bc 8528 48bb bae0 5bbb
00000190: 24b9 ec3a 20f0 9ebb 8786 f33c 8423 46bb
000001a0: 0374 2bbb 4dfb 293d a557 1c3d be0f 373c
000001b0: 6787 5abc 1ff1 aa3b 9b1c e8bb 36d6 503c
000001c0: 025a 4dbc d012 24bd eb7d 6a3d 91e6 253d
000001d0: 528b 4b35 5334 0abd cc21 7bbd 7d6f e33c
000001e0: 0eaf 4dbd f074 333d b2d4 a53a 4c57 e7bd
000001f0: c234 ce3d cdd5 c53d aa21 2a3e 7493 cabd
00000200: b3a8 833c 419c 4f3d 2ccb 453d c8b5 8bbd
00000210: 8b4f a93c a76b 6d3c 151a c13b 74db 0b3d
00000220: 320f 0c3e d826 e7bd 5623 62be d781 d4bb
00000230: e579 083b c4e8 9fbd 2b63 56be e7c8 403d
00000240: 7d81 143d 296d 03bc d661 d03a 7e6e 60bd
00000250: ce63 afbc a929 57bc 1b5d 613e 1b64 9a3d
00000260: bafe e33a 282b c3bd 2476 2e3d 39f1 35be
00000270: 071a d4ba 1827 aebc 5138 343c b50a 05bc
00000280: c336 01bc 4e16 583a 4e3a 06bc 2c41 6abc
00000290: 5a20 3a80 1df2 1fbc 50a0 d9bc 7f76 96bc
000002a0: d497 813e 49bb a1bd 5e20 58bc f213 69bc
000002b0: 1569 50bd 8557 02be 9ff0 33bb 59b7 a93b
000002c0: 00c6 063a 69ff 553b 5859 c53a e43b dbbb
000002d0: 300e 19bd aa29 8e3c 8411 6bbb 4b02 72bc
000002e0: cbb5 0abd fc2c f4bb 6590 823c 7895 31bb
000002f0: db3e 31bc 9867 1e3d 3f80 423c d4fe 0e3b
00000300: a9a1 4ebd 57b8 60bc 5550 e539 212f 053d
00000310: 81e8 473a 6e2d aebc a71c e33b 411f 07bc
00000320: febc 2f3b 0111 a2bc 07a1 d33b f93c 3ebb
00000330: f818 dcbd e6ce be3c 3e80 96b2 bcb3 3fbe
00000340: ec1d 94be 6bed d73d 53b7 153e 911a 00bc
00000350: 6704 2239 686d 303c 97e3 c0bd c6f8 abbd
00000360: e874 0f3e 7be2 b7bc 7482 a3ba 2683 57bc
00000370: c4cb 83bc c91d 0cbe f916 8ebd c704 fa3c
00000380: 5a94 133c 13e4 433d 6daa c33c 5d2e 0cbe
00000390: 3f7a 833e 9712 4abd 4506 f6ba 0291 9bbc
000003a0: 2a8d 913d 3098 573e 153b a13d 4aae bdbd
000003b0: d9e6 553b b637 043d 1576 ca3d c640 7b3e
000003c0: 5415 39be a90d 673d fcc4 3abc 3b5b 10bd
000003d0: 9185 2b3e 8e95 143e dc7c be3d 908b c5bc
000003e0: 7b29 833a 4b04 eb3a 90eb d4bc 4570 00be
000003f0: 4230 52bc 3598 dbbc 682a 913a a067 6cbc

ligandEncoder.convLayers.1.edgeLinear.bias f4 [128]
0.065012634 -0.0137372045 -0.029652169 -0.15584707 0.17840882 -0.16098309 -0.05003943 0.09012584
-0.23492543 0.058080252 -0.03305693 0.16997159 -0.059478864 0.061813507 -0.20975205 -0.04386646
-0.004402275 -0.117911264 0.075596005 -0.124352954 -0.039954558 0.03800041 0.0052356026 0.13393359
0.04623799 0.22271442 -0.018157689 -0.027431993 0.08740901 -0.0026369216 -0.060415436 0.0019013194
0.0079412935 -0.0059368177 0.25414252 -0.057376057 -0.018935407 0.0068168277 0.16141608 -0.2024941
0.119217776 -0.2395901 -0.02650322 -0.015605716 -0.095723435 0.15646273 0.2581155 0.18485312
-9.3158436e-05 -0.014818133 -0.106673464 0.024878398 0.23751809 -0.09916246 -0.03788286 0.13337325
0.16402689 0.17574908 -0.054843362 -0.08329763 -0.021339431 -0.10664535 -0.06495527 -0.044889756
0.15073913 -0.0018220538 0.010529205 -0.22740832 0.1488395 0.07757795 0.15335074 0.12122433
-0.024196979 0.011700331 -0.06292045 -0.20862788 -0.0025831426 -0.17366327 -0.115519054 -0.15324771
-0.02474276 0.20099325 -0.019667659 -0.009425577 0.2455754 0.0005614106 0.15843327 -0.0051095714
-0.05235447 -0.017995328 -0.13993709 0.26787314 -0.26650807 -0.020086316 0.05684055 -0.053561654
0.24104045 -0.017572103 -0.008526637 0.018621948 -0.010120388 0.023093022 -0.06451911 0.21814317
-0.024444979 -0.021509923 -0.22098275 0.22866057 -0.13007762 0.09527499 0.21696544 0.19043706
0.09734221 -0.016324047 -0.039570227 -0.008752825 -0.020118363 0.22760977 -0.11519931 0.076958396
-0.0177625 -0.0288602 0.15701543 0.19875118 0.001742936 0.12076951 0.30694598 -0.003289517
00000000: 5825 853d 0312 61bc 1be9 f2bc 6096 1fbe
00000010: cdb0 363e c0d8 24be 25f6 4cbd e593 b83d
00000020: 4b90 70be 8fe5 6d3d b466 07bd 080d 2e3e
00000030: 1ca0 73bd 2930 7d3d 3ec9 56be 51ad 33bd
00000040: f640 90bb 767b f1bd 14d2 9a3d c3ac febd
00000050: 64a7 23bd 51a6 1b3d 6b8f ab3b e325 093e
00000060: 0c64 3d3d 400f 643e 6fbf 94bc 0fb9 e0bc
00000070: 7f03 b33d 34d0 2cbb 2d76 77bd b135 f93a
00000080: 331c 023c a389 c2bb f81e 823e 2803 6bbd
00000090: 6d1e 9bbc b25f df3b 424a 253e 9d5a 4fbe
000000a0: 7328 f43d 1b57 75be 481d d9bc 1eaf 7fbc
000000b0: a60a c4bd c437 203e b727 843e 234a 3d3e
000000c0: 0e5e c3b8 c1c7 72bc 9e77 dabd c8cd cb3c
000000d0: f137 733e b015 cbbd 0f2b 1bbd ff92 083e
000000e0: aaf6 273e 91f7 333e 6fa3 60bd f397 aabd
000000f0: 08d0 aebc e168 dabd 4507 85bd 52de 37bd
00000100: 5c5b 1a3e fbd1 eeba b082 2c3c badd 68be
00000110: 6269 183e 30e1 9e3d fa07 1d3e 7644 f83d
00000120: be38 c6bc bfb2 3f3c 70dc 80bd 8ca2 55be
00000130: f149 29bb c9d4 31be 4195 ecbd f8ec 1cbe
00000140: 54b1 cabc 2dd1 4d3e 121e a1bc bc6d 1abc
00000150: 1e78 7b3e a12b 133a 553c 223e 316e a7bb
00000160: a471 56bd f06a 93bc ab4b 0fbe ab26 893e
00000170: bf73 88be 0f8c a4bc a3d1 683d 7763 5bbd
00000180: 4fd3 763e 5ff3 8fbc 4fb3 0bbc 0e8d 983c
00000190: fccf 25bc 942d bd3c 9822 84bd ec60 5f3e
000001a0: d640 c8bc 9435 b0bc 4d49 62be ff25 6a3e
000001b0: 1133 05be 891f c33d 302c 5e3e ef01 433e
000001c0: 5a5b c73d 02ba 85bc 6414 22bd 0268 0fbc
000001d0: 44cf a4bc 8912 693e 9eed ebbd 5d9c 9d3d
000001e0: aa82 91bc 3a6c ecbc a7c8 203e 6e85 4b3e
000001f0: 3a73 e43a 0156 f73d 0628 9d3e f094 57bb

ligandEncoder.convLayers.2.linear.weight f4 [128, 128]
0.02237085 0.013570121 -0.0077315737 -0.00419564 0.018007692 -0.014376563 0.01172787 0.039665535
-0.008099146 0.0040420247 0.0029523415 -0.09513625 0.031189462 -0.026184222 0.008286484 0.03605206
0.0052646343 0.035523355 0.009895759 -0.07927798 0.029857397 0.04660472 0.01761756 -4.39751e-05
-0.03256735 -0.004536205 0.008536504 0.073672675 -0.018979918 -0.007875588 0.044097543 0.0004931107
0.0519584 -0.026001507 0.05304989 0.004611217 -0.019548181 -0.058971103 -0.018279573 0.006864718
-0.04033547 -0.039438143 0.0071266284 0.048645146 0.07215251 0.0074929516 -0.006970188 -0.057691734
-0.025124243 -0.01843001 -0.05206535 0.016719535 0.018776838 0.09183394 0.0137517005 -0.091776125
0.006709012 -0.041099787 0.040765643 -0.02984446 -0.0023705438 0.017426537 0.067760184 0.022415202
0.061623238 -0.025456479 0.0051364186 -0.039262585 0.026361072 -0.011083896 -0.025705433 -0.016031152
-0.0023770712 -0.02663723 -0.05308126 -0.0002691974 -0.05695596 0.020437641 -0.028532036 -0.033346828
0.037628297 0.019886183 -0.0045004473 -0.021527894 -0.060042795 -0.023790466 0.02256956 -0.041831776
0.043653157 -0.022213446 -0.026816316 -0.0027288632 -0.027588738 0.0011961751 -0.010122071 -0.003694429
0.010740879 -0.0024829546 -0.054661162 -0.004440301 -0.033155773 -0.017901327 0.04912535 -0.0021361345
0.0045874007 -0.00027662187 -0.0420062 -0.029722467 -0.024659893 0.049454514 -0.04569442 -0.028552864
0.073205285 -0.04946841 -0.0065455525 -0.033668853 -0.0038770041 0.01533071 -0.0446971 -0.042724077
-0.0551456 0.0489931 0.07060685 -0.046272308 -0.00553744 0.043115113 -0.05784127 -0.0064889956
0.014525091 0.014692353 0.0081265075 0.02664837 0.018035587 -0.007269123 0.017017355 -0.07527327
-0.039118487 0.032746457 -0.007701315 0.010025249 0.015074234 0.010071153 0.00073078735 0.005746158
0.04783523 0.009888409 -0.0047190296 0.08763878 -0.008869796 0.017547296 -0.06884053 -0.05112193
-0.03250752 -0.011410129 0.028857658 -0.012516611 0.030640436 0.004538839 0.029792216 0.008845546
0.0020006038 -0.03622802 -0.0021958735 0.0067542563 0.04152308 -0.044802643 -0.03805658 -0.057331588
-0.08592189 -0.03501027 0.051112548 0.0657984 0.06166473 -0.10756456 0.0058246725 -0.031107945
0.00019840538 -0.013837174 -0.008308865 -0.017832125 -0.040974952 -0.043789174 0.010971652 -0.020451572
-0.032797445 -0.03948898 -0.015026761 0.023706438 -0.03718626 0.08126214 0.044814218 -0.08667629
-0.012907574 0.026178433 -0.0023239707 -0.0453301 0.029211031 0.046118755 -0.020485273 0.035763573
0.013275057 0.09516311 -0.05832157 -0.023191078 -0.02377178 0.06404266 -0.038487386 -0.005712849
0.0038740656 -0.02074006 0.009213213 0.007895967 -0.044248533 -0.040963758 -0.051597312 -0.022338267
-0.006815902 -0.024564074 0.005913085 -0.043789495 -0.06305103 -0.025802651 -0.008607995 0.014899347
-0.038251568 0.03884239 -0.046713404 -0.045141988 -0.036115684 0.02410034 -0.016110253 0.054192096
0.0014500353 0.040709928 -0.032677714 0.028999124 -0.021912985 0.005694826 -0.0245591 -0.018076882
-0.060654115 0.074811846 0.0077247177 0.0051431055 0.025903447 -0.08173385 -0.01636617 -0.016016869
-0.0076363017 -0.022489669 0.05631211 0.012188285 0.030510372 -0.011037782 0.0047803572 0.0075839874
00000000: 1343 b73c 3655 5e3c 2459 fdbb 947b 89bb
00000010: de84 933c ad8b 6bbc 4126 403c 5478 223d
00000020: 48b2 04bc f672 843b 127c 413b cbd6 c2bd
00000030: 0b81 ff3c 4b80 d6bc 08c4 073c 53ab 133d
00000040: f482 ac3b f080 113d d221 223c 7e5c a2bd
00000050: 8097 f43c 97e4 3e3d b452 903c e771 38b8
00000060: 5765 05bd 72a4 94bb b1dc 0b3c b3e1 963d
00000070: c67b 9bbc 9c08 01bc a09f 343d 1944 013a
00000080: 55d2 543d 1d01 d5bc d74a 593d b119 973b
00000090: 8223 a0bc af8b 71bd 0bbf 95bc 6ef1 e03b
000000a0: ce36 25bd e489 21bd 7e86 e93b 2240 473d
000000b0: b2c4 933d 6f87 f53b 2d66 e4bb 2b4e 6cbd
000000c0: 5bd1 cdbc 88fa 96bc 7a42 55bd 68f7 883c
000000d0: e2d1 993c 6f13 bc3d d04e 613c 1ff5 bbbd
000000e0: 46d7 db3b 4058 28bd e0f9 263d 5e7c f4bc
000000f0: 205b 1bbb 19c2 8e3c dac5 8a3d 16a0 b73c
00000100: a668 7c3d 1b8a d0bc 674f a83b ced1 20bd
00000110: 2df3 d73c 3b99 35bc 3394 d2bc c353 83bc
00000120: a3c8 1bbb 5236 dabc bc6b 59bd 1023 8db9
00000130: a74a 69bd d76c a73c 04bc e9bc af96 08bd
00000140: 2120 1a3d 59e8 a23c 7d78 93bb 445b b0bc
00000150: 6fef 75bd 39e4 c2bc cce3 b83c cc57 2bbd
00000160: a7cd 323d f9f8 b5bc e4ad dbbc bad6 32bb
00000170: c701 e2bc fac8 9c3a 0bd7 25bc 3c1e 72bb
00000180: 83fa 2f3c 11b9 22bb 62e4 5fbd f27f 91bb
00000190: 59ce 07bd cea5 92bc aa37 493d 64fe 0bbb
000001a0: e851 963b 8f07 91b9 b10e 2cbd 887c f3bc
000001b0: 8b03 cabc d190 4a3d 122a 3bbd b2e7 e9bc
000001c0: a7ec 953d 639f 4abd 137c d6bb 5ae8 09bd
000001d0: 5615 7ebb a92d 7b3c 4e14 37bd 71ff 2ebd
000001e0: 5ae0 61bd fdac 483d 539a 903d 0888 3dbd
000001f0: 6a73 b5bb 7999 303d f8ea 6cbd a4a1 d4bb
00000200: a6fa 6d3c 32b8 703c 0b25 053c af4d da3c
00000210: 5ebf 933c d331 eebb fb67 8b3c df28 9abd
00000220: b53a 20bd 2621 063d 505b fcbb f140 243c
00000230: ecf9 763c 7a01 253c 4f92 3f3a 444a bc3b
00000240: e0ee 433d fe02 223c 17a2 9abb f67b b33d
00000250: 9f52 11bc 59bf 8f3c 44fc 8cbd 3b65 51bd
00000260: 9b26 05bd 8df1 3abc e566 ec3c 7912 4dbc
00000270: a701 fb3c 8bba 943b ce0e f43c e9ec 103c
00000280: 901c 033b d563 14bd a5e8 0fbb cf52 dd3b
00000290: 1b14 2a3d fa82 37bd 37e1 1bbd 87d4 6abd
000002a0: d1f7 afbd ee66 0fbd 645b 513d 50c1 863d
000002b0: 2894 7c3d cf4a dcbd e5dc be3b 17d6 febc
000002c0: 0a0b 5039 50b5 62bc e821 08bc ad14 92bc
000002d0: 5ad5 27bd 475c 33bd 72c2 333c 0e8a a7bc
000002e0: 9d56 06bd 32bf 21bd ce32 76bc 0134 c23c
000002f0: 9f50 18bd c46c a63d 1d8f 373d 5783 b1bd
00000300: 4a7a 53bc 2774 d63c c24d 18bb 0eac 39bd
00000310: f94b ef3c 05e7 3c3d bbd0 a7bc d37c 123d
00000320: a07f 593c e0e4 c23d 99e2 6ebd 37fb bdbc
00000330: 09bd c2bc cc28 833d f3a4 1dbd da32 bbbb
00000340: 09e4 7d3b 0fe7 a9bc 04f3 163c 165e 013c
00000350: f33d 35bd 9dc9 27bd b457 53bd befe b6bc
00000360: ee57 dfbb 993a c9bc 8dc2 c13b 9d5c 33bd
00000370: e620 81bd 1560 d3bc 8c08 0dbc 641c 743c
00000380: adad 1cbd 3319 1f3d 8e56 3fbd cee6 38bd
00000390: 0aee 13bd 146e c53c a6f9 83bc 88f8 5d3d
000003a0: 1c0f be3a 74bf 263d 11d9 05bd 928f ed3c
000003b0: dc82 b3bc aa9b ba3b 2a30 c9bc f815 94bc
000003c0: 7370 78bd f436 993d a11f fd3b 7f87 a83b
000003d0: 7733 d43c 1464 a7bd 5912 86bc cf35 83bc
000003e0: f139 fabb 413c b8bc 87a7 663d 5fb1 473c
000003f0: e3f0 f93c d0d7 34bc 8ba4 9c3b 1983 f83b

ligandEncoder.convLayers.2.linear.bias f4 [128]
-0.02981457 -0.008870196 0.008864451 -0.04573289 -0.057882294 -0.085785784 -0.027652007 -0.087702036
-0.08577564 -0.09179301 0.02521372 -0.028869834 -0.06313329 -0.026522836 -0.039897896 -0.04069052
0.029824467 -0.050329573 -0.010193716 -0.022086324 -0.06824527 -0.06989324 -0.067250505 -0.07232152
0.044096816 -0.017738862 -0.0163754 -0.023783952 -0.037449572 0.0005174031 -0.06287249 -0.0683971
-0.07308625 -0.03957008 -0.078699805 -0.010452352 -0.059422243 -0.10959344 0.0063079298 -0.09035524
-0.0047607934 -0.0019659414 -0.06231084 -0.022598375 -0.026554236 -0.07081162 -0.019535508 -0.024551407
-0.064683355 -0.056094144 -0.061782986 -0.0491601 -0.05924225 -0.032859653 -0.011007671 -0.00818793
-0.026073657 -0.08535466 0.0058537186 -0.0070073386 -0.06593282 -0.034833807 0.038723852 -0.0572051
0.07632432 -0.012654339 -0.028111784 -0.07183096 -0.03415062 -0.027466504 -0.07753864 -0.041996222
0.026845293 -0.068094246 -0.043612335 -0.015468171 -0.0606622 -0.11911943 -0.09984428 -0.019498248
-0.06814735 0.021831373 -0.11177246 0.013444307 0.02299311 -0.028148787 0.01891916 -0.058632825
-0.13522464 -0.014183501 -0.09658652 -0.104952015 -0.010636844 0.0047900598 -0.043462045 -0.0313006
0.016619653 0.0014330514 -0.031131532 0.0068312376 -0.02125226 -0.03334233 -0.03913945 -0.11510885
-0.012311664 -0.02638216 -0.080179475 -0.046714146 -0.06501026 -0.04298716 -0.028423324 -0.048139922
-0.024301736 0.026657337 -0.009530588 0.02522238 -0.08894874 -0.02418792 -0.050932825 -0.039653428
-0.035523277 -0.019062126 -0.12297381 -0.023629686 -0.06567559 -0.07453935 -0.043425713 0.013177704
00000000: af3d f4bc 4c54 11bc 343c 113c 6952 3bbd
00000010: fc15 6dbd 75b0 afbd 7686 e2bc 209d b3bd
00000020: 24ab afbd f9fd bbbd 018d ce3c 6e80 ecbc
00000030: 074c 81bd 6b46 d9bc fa6b 23bd 1aab 26bd
00000040: 7152 f43c 6226 4ebd 8b03 27bc 61ee b4bc
00000050: 2dc4 8bbd 3024 8fbd a2ba 89bd 4e1d 94bd
00000060: dd9e 343d 1751 91bc b425 86bc 90d6 c2bc
00000070: b964 19bd 56a2 073a 4bc3 80bd c713 8cbd
00000080: 3eae 95bd 3c14 22bd 5d2d a1bd 5840 2bbc
00000090: bd64 73bd 8772 e0bd c0b2 ce3b 2b0c b9bd
000000a0: 6e00 9cbb 06d7 00bb a739 7fbd 3a20 b9bc
000000b0: 4588 d9bc af05 91bd ee08 a0bc 0820 c9bc
000000c0: b578 84bd f9c2 65bd 2810 7dbd 1a5c 49bd
000000d0: 00a8 72bd d897 06bd 8559 34bc ab26 06bc
000000e0: 6c98 d5bc 6dce aebd 8dd0 bf3b d19d e5bb
000000f0: c907 87bd e5ad 0ebd e79c 1e3d e54f 6abd
00000100: ed4f 9c3d 2554 4fbc af4a e6bc 1c1c 93bd
00000110: 85e1 0bbd 6f01 e1bc 94cc 9ebd 3b04 2cbd
00000120: a9ea db3c ff74 8bbd d9a2 32bd 366e 7dbc
00000130: ed78 78bd e3f4 f3bd 287b ccbd caba 9fbc
00000140: d690 8bbd b5d7 b23c f6e8 e4bd 8345 5c3c
00000150: 0c5c bc3c 4998 e6bc 5bfc 9a3c f928 70bd
00000160: 5478 0abe ea61 68bc 27cf c5bd 15f1 d6bd
00000170: 2846 2ebc eff5 9c3b 4205 32bd 0f35 00bd
00000180: f025 883c 3ad5 bb3a 8e07 ffbc 93d8 df3b
00000190: 3819 aebc f891 08bd b050 20bd 30be ebbd
000001a0: ddb6 49bc 661f d8bc 2335 a4bd 5557 3fbd
000001b0: 1924 85bd 4e13 30bd 08d8 e8bc 5e2e 45bd
000001c0: 6f14 c7bc 7d60 da3c 2f26 1cbc 2a9f ce3c
000001d0: c22a b6bd bf25 c6bc f09e 50bd a26b 22bd
000001e0: db80 11bd 2d28 9cbc b1d9 fbbd 0b93 c1bc
000001f0: ec80 86bd 16a8 98bd 29df 31bd 4ce7 573c
