results/original_split/iter3_best_model.pt (torch, 998341 bytes, 33 tensors)

ligandEncoder.convLayers.0.linear.weight f4 [128, 19]
00000000: a631 4682 303b 1c81 ce6a 8a82 848c 1902
00000010: 6370 4b82 46a6 2002 6c93 1402 64ea 8b02
00000020: 0d80 2b82 b03e 0981 5e3f 4282 c641 4002
00000030: 70dd 7a02 7af2 9082 3911 4c82 c62a 1602
00000040: a847 3d01 fa4d 8f82 7a2d 4582 d598 82be
00000050: 00aa 923d 0a16 2c3f 3911 bc3e f3db d2be
00000060: 8657 8c02 2760 1a3f 79d9 683f 37b2 92be
00000070: 56f1 28bc ba33 a1be 2675 ebbe 3fec 9ebe
00000080: 06f7 683e f1ff 88be 113b 9f02 c1dd 6702
00000090: 4f44 123e 51fb 0c3e 347f 4982 fd23 4f82
000000a0: 1e40 9682 0d75 4082 1f8d 3802 9f4e c181
000000b0: 9e7a 4b82 9b35 fc81 196c 8d02 b267 6882
000000c0: 200c 2882 8a6b 7102 422f 1d02 440d 2f82
000000d0: eddc 1e02 36a7 9302 6220 9c82 440d 2f82
000000e0: bd67 7402 8be8 72be 0b79 0b3f ffab c4bd
000000f0: dac4 e93d 71ff 5a3e 8f1c 653e b14d af3d
00000100: bb93 963e 0fdc 713e 4b49 1bbd a69a 53be
00000110: 0c4b 853d 628c 0ebe 71ef 83bd b08d 393e
00000120: 1d7b 4833 170f 8782 f5ef 203e 0e83 33be
00000130: 2d70 2cbe c337 b5bd a11c d23e cdc3 b73c
00000140: 76ac 7f3e f54e a73f da75 7bbe fb42 93be
00000150: 198c 2bbc 5e07 b13e fde7 963e f490 87bd
00000160: 4e66 e3be bdf2 bfbe 7c9a 953e 2308 3735
00000170: 9d7b 983b 308b 473e dd9b 19bf 4b5d 2dbd
00000180: adfd 3b3d fe3d fc3a 9e22 c63d c85c 9ebc
00000190: 2f36 613e 0b45 ba3b 6f46 983a 9a32 e039
000001a0: 03ea cfba 4ce5 ea3b da5e 473e 50bc 903d
000001b0: ad40 90bc 12d3 61bc afc6 8382 41d4 093b
000001c0: 8793 4b3d 5e99 11bd afe3 453c 7f74 ccbb
000001d0: 6076 a63e c8be 7cbf 9500 eebe 13e6 6abd
000001e0: aa43 d93c b843 953e 009c f3bd 52bf ae3d
000001f0: e3f5 053e b34d 1fbe 402e 21bd ad45 0b3d
00000200: 947d 23bf 3e62 9502 6a37 ecb9 e518 583e
00000210: 826e e93c 89f4 88b8 86ce 301b bf70 c529
00000220: 5998 01b1 d49d 1781 6078 f981 14ca 2d02
00000230: 8954 8982 a3a5 0b82 518c d801 312e 94ba
00000240: 5428 4982 2784 bd01 54e5 00b8 9da1 aab0
00000250: 4eeb 8882 6d8c 9202 3482 51b7 7f32 30b8
00000260: ca8b 0abf 60df 0c3f d278 243f a1d4 0a3f
00000270: f4b9 e5bd ae94 2d3f c478 d5be 8d2a 7e3d
00000280: 01a8 9b3b 2b5e 003e b53d 9b3d c3aa dcbe
00000290: 785a 13be 8355 c03e 4a2e 1abf 6dd4 6fab
000002a0: 92e8 e03b 53d2 a5bd 64fc 05be c17f 23be
000002b0: e7d0 0e3f 9979 f13e f4ff d4be 87fd d43e
000002c0: b8c1 913e 3393 6abd 451b 0d3e 7ae7 7b3b
000002d0: 62be 253e cfa8 933b d7df 323e 8ff4 9d3e
000002e0: 63c4 13bf b49a df3e e1a5 a538 003b 9c82
000002f0: f03c 403e 7174 823e a9c1 b5be ac60 063f
00000300: ce9e 4a3d 96cd 2bbf c90f 3f3f 579e 173e
00000310: b52e 903e a513 c63e 523a db3c 53e8 d53d
00000320: fff6 4dbe f47f 1c3f 5bd6 82bc 2ba0 43be
00000330: fd65 a03d 1973 4402 fef3 de01 6ed2 b7bd
00000340: f705 3d3c b605 a93e c41b dcbe 8246 b9be
00000350: ef6b 36bf f2df be3e af3e 24bf 7c6d 49bf
00000360: fce6 a8bc 0493 56be b12b a0bd 0ca1 cd3d
00000370: 7ca8 8a3d a04a 563e 02f1 a13e 8e93 edbe
00000380: 4a9c 4933 f0bd c13b ad5c acbe 633a cbbd
00000390: bf73 92bd 9a03 09be 0344 0b3e 87e3 6b3f
000003a0: e39f 093f 4dfa 9cbe d1e4 66be 6b65 423e
000003b0: 2164 933e f5f2 0fbe 2388 1fbe 520a 10bf
000003c0: e4ac 443e 1c9c ea3d b07b 813e 43ec 2d82
000003d0: c313 ca3b ac74 603e c777 49bf 9da7 153e
000003e0: 770e e43d 76cc 5cbf 9036 783f c2c0 8c3e
000003f0: 89e9 12bf 69c8 2abf 17eb 10be 6872 1a3f
-1.4560991e-37 -2.869514e-38 -2.033858e-37 1.1280991e-37 -1.4946338e-37 1.1802662e-37 1.0915631e-37 2.0558748e-37
-1.2599845e-37 -2.5207902e-38 -1.4271054e-37 1.4124808e-37 1.8430649e-37 -2.1298073e-37 -1.4992496e-37 1.1032535e-37
3.4765228e-38 -2.1056718e-37 -1.4486325e-37 -0.25507227 0.07161331 0.6722113 0.3673189 -0.41183433
2.0621387e-37 0.60302967 0.90956837 -0.28651592 -0.010311445 -0.31484777 -0.45987815 -0.31039616
0.22750482 -0.26757768 2.3396853e-37 1.703484e-37 0.1428387 0.13767745 -1.4803653e-37 -1.5218286e-37
-2.207732e-37 -1.4139524e-37 1.3558685e-37 -7.100982e-38 -1.4949274e-37 -9.26471e-38 2.0780133e-37 -1.7074427e-37
-1.234617e-37 1.7736746e-37 1.1548101e-37 -1.2860777e-37 1.1671409e-37 2.1695683e-37 -2.2940727e-37 -1.2860777e-37
1.795606e-37 -0.2372152 0.5448157 -0.09603118 0.114144996 0.21386506 0.22374175 0.0855974
0.29409584 0.23619102 -0.037911694 -0.20664462 0.06508455 -0.1392074 -0.06442154 0.18120456
4.66781e-08 -1.9845128e-37 0.15716536 -0.17530462 -0.16839667 -0.08848526 0.41037467 0.022432232
0.24968132 1.3070971 -0.24556676 -0.2876204 -0.010470414 0.34575933 0.29473868 -0.066194445
-0.4441399 -0.37489882 0.29219425 6.8184653e-07 0.0046534077 0.1948669 -0.60003453 -0.0423253
0.04589622 0.0019244549 0.096745715 -0.01933135 0.21993326 0.0056845 0.001161767 0.0004276231
-0.0015862588 0.0071684476 0.19469777 0.07067168 -0.017608965 -0.013783233 -1.9362759e-37 0.0021031054
0.04970124 -0.035546653 0.01207821 -0.0062394734 0.32512188 -0.9872861 -0.4648482 -0.057348322
0.026521523 0.29153228 -0.11894989 0.08532585 0.1308208 -0.15556984 -0.039350748 0.034001995
-0.6386349 2.194997e-37 -0.00045054714 0.21103247 0.028495077 -6.5305336e-05 1.462511e-22 8.768116e-14
-1.885857e-09 -2.7847556e-38 -9.1640884e-38 1.2768026e-37 -2.0178862e-37 -1.0259643e-37 7.9547213e-38 -0.001130527
-1.4778721e-37 6.9617264e-38 -3.0731157e-05 -1.2415061e-09 -2.0118462e-37 2.1533372e-37 -1.2487686e-05 -4.2008698e-05
-0.5411955 0.55028343 0.6424686 0.54230696 -0.11217108 0.6780499 -0.416937 0.0620523
0.0047502522 0.12535922 0.07580129 -0.4309903 -0.1438998 0.3756524 -0.6022688 -8.5204657e-13
0.006863662 -0.08096757 -0.1308456 -0.15966703 0.5578751 0.47163084 -0.41601527 0.41599676
0.28468108 -0.057269286 0.13779934 0.0038437531 0.16185907 0.0045062075 0.174682 0.30850646
-0.5772154 0.43672717 7.8987105e-05 -2.2956004e-37 0.18773246 0.25479463 -0.35499313 0.5249126
0.049467854 -0.67110574 0.7463346 0.14806496 0.28160635 0.38686863 0.026761208 0.10444703
-0.20113753 0.6113274 -0.015971353 -0.19104068 0.07831953 1.4432837e-37 8.190003e-38 -0.08975683
0.011537067 0.3301217 -0.42989933 -0.36186606 -0.71258444 0.37280232 -0.6415815 -0.78682685
-0.020617954 -0.2095452 -0.078208335 0.10040483 0.06770417 0.20926905 0.31629187 -0.46401638
4.6941103e-08 0.005912535 -0.33664456 -0.09923246 -0.07150983 -0.1338028 0.13600163 0.92144054
0.5375959 -0.30659714 -0.22548224 0.18984 0.2878733 -0.14057525 -0.15579276 -0.5626575
0.19206578 0.11455557 0.2528968 -1.2777836e-37 0.0061669066 0.21919507 -0.7869839 0.1461472
0.111355714 -0.8624948 0.96958256 0.27490813 -0.57387596 -0.6671205 -0.1415218 0.6033082

ligandEncoder.convLayers.0.linear.bias f4 [128]
00000000: f4d7 5882 8e03 bc3d 440d 2f82 6d9f 58bd
00000010: 4581 133e 54f2 85b8 4f16 4abe 1cb8 e0b8
00000020: 6bf0 8b3d 23c5 2f3e 6f6b 3c3e c5db eebd
00000030: 02c3 803e 65de a73d d684 cf3c 7213 67be
00000040: 2a6a 4bbe e836 68be 5643 003e 4459 723c
00000050: aeae 903c cf48 453d 5064 8582 ccaa 163e
00000060: cc34 bebd 90f3 debd 7820 a1bd eebd 25bd
00000070: 8303 00be ba14 ff3d 0dd9 32be 51c2 033e
00000080: e57d 0782 01c0 033c 2aea 333e acd6 153a
00000090: 7fb7 4c3e e7f1 96bd 28e9 f33c 6536 03be
000000a0: f5f1 533e 956a 88be f10a 5ebd 2c3d 37be
000000b0: 9110 06be e58e 123e 434c 67bd c513 38bd
000000c0: ee25 79bd 2fab 8a3d 6e5e 3a3e c85d 54bc
000000d0: c44a 793d 9059 f13d 631d d13b a173 81be
000000e0: 1bba 413d dcda 0a3e 9b68 5cbe 2e1a 713e
000000f0: a882 aa3d a226 2e82 9e8c 803d 5303 e53d
00000100: fdc7 f8bb 0afd 5fbe b13c 0dbd 48a2 1dbd
00000110: d809 1dbe 9a62 1fbe ac6d 6b82 facf ae3b
00000120: 4767 963d 7442 73be cfa3 66bb 6657 0b82
00000130: 79d9 113e 6309 59be 98f9 433e d9f1 cabd
00000140: 6ecc 03bd 95b5 533e 3959 24bc 2351 e43d
00000150: 3321 a03d 7bfc 303e 95e1 a5bc 4dbf 3c82
00000160: 7771 af3d 6826 2b3e 94ff 27be 131c 6cbe
00000170: 8792 76be e23c f23d 3eeb 343a cede 44be
00000180: c4aa a381 85ca b93d ec60 383e 7e5c 7cbe
00000190: 7cd5 bb3d 592e e83d c693 ef3d d3be 2d82
000001a0: d0e0 8282 1707 ec3c 1c1f 1dbe 87fe 723b
000001b0: 78e7 82bd 0b5a 99bd fdcc ec3b d0c7 50b7
000001c0: 65a9 90be fcfc ad3d 53e6 1bbd fa89 51be
000001d0: df18 76bb c3d2 ac3d 0bd4 51be a7e1 0ebe
000001e0: e28f 20bd 4bd7 0fbd c019 373e 8472 4cbe
000001f0: 561b 313e 03e5 70be 73ac c0bd b257 2dbd
-1.5931149e-37 0.091803655 -1.2860777e-37 -0.052886415 0.14404781 -6.387071e-05 -0.19735073 -0.000107154454
0.068329655 0.17165045 0.18400358 -0.116630115 0.2514878 0.08196715 0.025331896 -0.22566012
-0.19864717 -0.22677195 0.12525687 0.01479179 0.017661419 0.04816514 -1.960017e-37 0.14713591
-0.09287414 -0.108862996 -0.07867521 -0.040464334 -0.1250134 0.12455125 -0.17465611 0.12867095
-9.954364e-38 0.008041383 0.17569795 0.00057158875 0.19991873 -0.07370358 0.029774264 -0.12813719
0.20697768 -0.26643816 -0.054209653 -0.17894429 -0.13092257 0.14312322 -0.056469213 -0.04494073
-0.06082719 0.06770932 0.18200085 -0.012961812 0.060862318 0.11784661 0.006381677 -0.2528353
0.047296625 0.1356005 -0.21524279 0.23545143 0.08325702 -1.2794588e-37 0.062768206 0.11182275
-0.0075922 -0.2187387 -0.034481708 -0.03848484 -0.15335786 -0.15564957 -1.7296548e-37 0.0053348513
0.07343917 -0.23755819 -0.0035192852 -1.0237189e-37 0.14243115 -0.21194987 0.19138181 -0.0990941
-0.03217738 0.20674737 -0.010031038 0.11148288 0.07818832 0.17283814 -0.020249167 -1.3866959e-37
0.085665636 0.1671387 -0.16406089 -0.23057584 -0.24079333 0.11828019 0.0006901509 -0.19225618
-6.012178e-38 0.09071831 0.18005723 -0.24644658 0.09171578 0.11336965 0.116981074 -1.2764797e-37
-1.923082e-37 0.028811974 -0.15343899 0.003707798 -0.063918054 -0.074878775 0.007226585 -1.2444289e-05
-0.28254238 0.084955186 -0.03806145 -0.2046279 -0.0037551445 0.08438637 -0.20491044 -0.13953267
-0.039199717 -0.03511743 0.17880917 -0.19965559 0.17295584 -0.23524861 -0.09407892 -0.04231996

ligandEncoder.convLayers.0.edgeLinear.weight f4 [128, 6]
00000000: 456f 4d82 9e0c 9282 6933 6602 e1af 9382
00000010: 7af2 9082 4b34 6082 ab1e e6be 0e4b ed3d
00000020: f5f4 11bb 4995 ac3e a695 d03e 02a6 9dbd
00000030: 5ec5 3282 998b 7f82 9c2d 4202 11e4 2482
00000040: 440d 2f82 11e4 2482 0797 e43e a6d8 d7bd
00000050: 3827 6bbc 099d bfbe 3596 593e 60c1 af3e
00000060: e4dc 52be 1591 c6bc b535 94be 792a 67bd
00000070: 3ecc a4be c782 773e a769 08bd e968 943d
00000080: b2bb 26bc b027 9d3d 7d54 373d 487f 6f3d
00000090: 024c afbe a10f 06bf a9f0 473d 613f d03e
000000a0: 07a1 a53e 447c c73e e113 afb6 c082 0616
000000b0: 3731 e101 2333 34b6 2ae2 abb8 4310 2db7
000000c0: 3cf9 753e f580 f83e e5bf 503e e797 c1bd
000000d0: 0cd9 90bc dcc0 993e 77df 7d3e d04f 61be
000000e0: dca9 983e 3154 573e 31c6 dbbd 60c4 39be
000000f0: 4519 d73e 7d9d 36be 255d 633e 64fc 553c
00000100: c38b 2c3e e259 2b3f 7883 af3d 2224 d53e
00000110: c1f9 cd3d 8432 5cbd d580 a93e db03 e5bd
00000120: 4f6a f33e 43c8 d8be 08a0 d03e 4909 70bd
00000130: 6740 583d a982 64bd ce41 873e 48bd 003f
00000140: ff70 70be a17d 653d 7527 103e 3e70 48be
00000150: 2d07 49be 9d96 1c3e 8b19 bbbe eab2 5dbd
00000160: 000d afbe a0d8 bc3e 614b 5e3e 7337 7d3e
00000170: d780 68be 7dac 0c3e 07a1 f6be e0cb 423e
00000180: 7697 1f3e 5ea4 7cbe 18ea 8bbe 0bc1 47be
00000190: aaa7 fdbd 7b25 b83e 4d9e 8c3e 9d58 d43e
000001a0: 319d 353e 692f 1abf 7aca fc3d 5dae 943e
000001b0: 2588 c83e 097e edbe f63c 77be 29fb cb3e
000001c0: a696 a93d 726b 0abf 7987 59be a124 803b
000001d0: a743 a23b df4c 1f3e c31f 7d3d 5040 9b3d
000001e0: c872 6f3e 821a d9be 1a18 a73e 49d9 0b3e
000001f0: 9f2b 323e 291a 4cbf a110 c93d 8af6 28be
00000200: 8b22 1d3e 2f15 0d3e 6234 0dbe 26b4 3ebe
00000210: 85cb aa82 89c4 3102 1162 8001 b4df 9182
00000220: 17b5 8f82 b4df 9182 be22 ecbd fdd6 303d
00000230: 19a8 ff3d d3b4 b03e d1d2 343e 9bee 513c
00000240: 3e06 b13e 7c01 04bf 389f c9be 946b 10bd
00000250: 027c b2be 3cc0 a2be 5c24 d83e a58f edbe
00000260: 1ac5 d83e 1bfc 863e 46e0 153f 8b6c 85bf
00000270: 36ff 463e 39cb b8be d211 143e 0101 fc3d
00000280: 7be2 eebe 62e3 20bf f75f abbe 8232 713e
00000290: 6114 1e3e 185a 0e3e 1e7d 0a3e e5a5 c53e
000002a0: 96cc f43e 3593 eabc 0173 543e d32d b7bd
000002b0: 7e38 a33d 94c2 93bf bbc9 b93d 71c8 a8be
000002c0: 1bc2 733e d922 423e 1aa9 26be 66b7 17bf
000002d0: 6a7b 7e3e 90e1 413f abde 1a3e a2e8 343d
000002e0: b315 c23e 571f 053f 1085 033e a485 5c3d
000002f0: b8e2 4fbe 0c7d 4ebd ef86 98bd 6be7 00bf
00000300: d129 2202 e6ae 3e81 ca5f 0d81 b61c f881
00000310: 5faf e881 8789 fd81 5f5f 953b 5483 e43b
00000320: 2675 963c ca2d 3c3c c704 c23b 81bf 2a3c
00000330: e862 f0bc 8f48 003f 08ff 6c3e 7514 a2be
00000340: ceec d13e d90b cf3d 0655 cdbe c7f2 253f
00000350: ea6c 8bbd 76ce 93be 340b e83e f298 c4bd
00000360: dcaa 5bbe 4a06 223f cb02 0b3e 7c1b a5bb
00000370: 02b4 e23e c2fa 8fbd 4021 77bd 95d1 0db9
00000380: 3de0 a53e 39ed 9782 06b4 2c3c 2a25 7282
00000390: a45c c1be 202f dabe 0aca fe3e accc 523d
000003a0: 76af 5bbd 0b54 243f 8564 dc3e de21 28bd
000003b0: e6eb 11be 8f52 d73c 2c97 a5be a1bb f6be
000003c0: 17ff b93c 7fe7 63be 235d b63c a1f5 b23e
000003d0: d502 fbbc 5ae8 e23e 1b59 803e adbb 32bf
000003e0: 6416 68be b361 a73e 0d33 e6be b799 ef3e
000003f0: 3459 2b3d 8355 54be f0ae a93e 42e7 c43b
-1.5092954e-37 -2.1460014e-37 1.6912485e-37 -2.1700658e-37 -2.1298073e-37 -1.6471928e-37 -0.44945273 0.11586581
-0.002227125 0.33707646 0.40739173 -0.07697679 -1.3134016e-37 -1.8774504e-37 1.4265958e-37 -1.2114269e-37
-1.2860777e-37 -1.2114269e-37 0.44646475 -0.10539369 -0.014352612 -0.37424496 0.21248706 0.3432722
-0.20592076 -0.024239102 -0.28947225 -0.05643699 -0.32187074 0.24170981 -0.033303883 0.072465725
-0.010176586 0.076735854 0.04475831 0.058470994 -0.34237677 -0.523676 0.048813496 0.40673354
0.32349417 0.38961995 -5.2177206e-06 1.0865691e-25 8.2722566e-38 -2.6851856e-06 -8.196042e-05 -1.031539e-05
0.24020857 0.48535886 0.20385702 -0.09452801 -0.017681621 0.30029953 0.24792276 -0.22003102
0.29817092 0.2102821 -0.107311614 -0.18141317 0.42011467 -0.17833515 0.222035 0.013060663
0.1685019 0.66934025 0.085699975 0.4162913 0.100574024 -0.053759113 0.33106104 -0.11182376
0.47542045 -0.42340288 0.40747094 -0.058602605 0.052795794 -0.05578867 0.26417392 0.5028882
-0.23480605 0.056028012 0.14077552 -0.19574067 -0.19631644 0.1529183 -0.36542925 -0.054125704
-0.34189606 0.36884022 0.21708442 0.24728183 -0.22705398 0.13737674 -0.4816973 0.19023085
0.15585122 -0.24672076 -0.27327037 -0.19507234 -0.12385495 0.35966095 0.27464524 0.41473857
0.17735745 -0.6022859 0.12343307 0.2903928 0.3916637 -0.4638522 -0.24144349 0.39840057
0.08280687 -0.540702 -0.21243085 0.0039106165 0.0049519124 0.15556668 0.06179787 0.07580626
0.2338363 -0.42403036 0.32635576 0.13657106 0.17399453 -0.7972742 0.09817625 -0.16500297
0.15345208 0.13777612 -0.13789514 -0.18623409 -2.509607e-37 1.3060309e-37 4.716049e-38 -2.1434234e-37
-2.1115902e-37 -2.1434234e-37 -0.11530064 0.04317378 0.12483234 0.34512958 0.17658545 0.012813236
0.34575075 -0.51564765 -0.39379287 -0.035258844 -0.34860235 -0.31787288 0.4221524 -0.46398655
0.42337877 0.26364216 0.5854534 -1.042375 0.19433293 -0.36092547 0.14459923 0.12304879
-0.46657166 -0.6284696 -0.33471653 0.23554423 0.15437461 0.13901556 0.13524291 0.3860313
0.47812337 -0.028634647 0.20746996 -0.08944287 0.079697594 -1.1543756 0.0907168 -0.32965425
0.23804514 0.18958606 -0.16275445 -0.5926422 0.24851766 0.75734806 0.15124004 0.04416717
0.3790718 0.52000946 0.12843728 0.053838387 -0.2030133 -0.050412223 -0.074476115 -0.50353116
1.1913881e-37 -3.5022972e-38 -2.5966335e-38 -9.114201e-38 -8.5474986e-38 -9.3134864e-38 0.0045584883 0.0069736633
0.018366408 0.011485526 0.0059209797 0.010421635 -0.029344037 0.50110716 0.23144162 -0.31656232
0.4100098 0.10109682 -0.4010393 0.64823574 -0.06807883 -0.28868455 0.45321047 -0.095994845
-0.21451896 0.63290846 0.13575284 -0.005038677 0.4427796 -0.0703025 -0.060334444 -0.00013524883
0.32397643 -2.2323615e-37 0.010540968 -1.7790018e-37 -0.37765992 -0.4261408 0.4976352 0.05146472
-0.05363413 0.6419074 0.4304544 -0.041047923 -0.14250144 0.026284484 -0.32341897 -0.48190024
0.022704644 -0.22256278 0.022261208 0.34953025 -0.030640999 0.44317895 0.25067982 -0.6981762
-0.22664791 0.32691726 -0.44960824 0.46796963 0.041833118 -0.20735745 0.3314128 0.0060090134

ligandEncoder.convLayers.0.edgeLinear.bias f4 [128]
00000000: f4d7 5882 c6da 753e 440d 2f82 cb3b 993e
00000010: 16e7 60be dc0b 86b8 033d b7be 1cb8 e0b8
00000020: 7114 0fbe f3d2 47be f35f a03d c01b 893d
00000030: 8d37 9f3d 3997 48be ac12 98be 4471 773e
00000040: 4ab2 92be 7e51 a33d b654 8f3e 6659 723c
00000050: ee8b c43d d348 453d 5064 8582 ead0 c1be
00000060: d5ef 8d3e 809e 2fbd ae2e 843d 969b 203d
00000070: a49d 9e3d 8827 c23e ade6 1fbe 81e8 b3be
00000080: e57d 0782 f7bf 033c 2e2c 4bbe ac74 863e
00000090: e29b af3d f0f1 96bd 7234 d03c 9c6e 5fbd
000000a0: a52e 94be 8686 75bd d244 a83d c93f 42be
000000b0: 8a21 7d3e a2d8 20bd 7e23 563e 9bba 21bd
000000c0: 7f2a 643d 35c2 543c 7885 7bbd 7c11 c03e
000000d0: 937d ffba 6795 fa3d 6f1d d13b 126f a93d
000000e0: 921e be3d bbfc 823e 3b1f 8d3e 4a59 3fbe
000000f0: b235 19bd a226 2e82 1282 2f3e 784a 94bd
00000100: fdc7 f8bb bf2d 6e3e f17a b63e 2179 3e3e
00000110: 1f6a 8c3e 9be9 733d 035d 5b82 7a4f 963b
00000120: 8bd9 a73e bea9 9fbe cfa3 66bb 6657 0b82
00000130: a0c1 13be 9d34 953e 8740 a03d 4236 193b
00000140: e119 4abe 6b83 883d 6959 24bc 6ea3 e2bd
00000150: 4e01 9ebe c544 51be f98f 5fbe 4dbf 3c82
00000160: 7063 113e f59e cb3d a71e db3d c9dd 78be
00000170: 15f6 8fbe 115a 2fbd 5bec 343a df06 933e
00000180: 9148 b581 c0c9 35be 59b6 a83e 185e 91bc
00000190: 4e15 b83d 5a21 be3e 07cb fa3d d3be 2d82
000001a0: 32ed 8982 0152 c53d 61aa 913e 35a3 2dbd
000001b0: 6a96 53bd 77a1 66bd 6ff6 7c3d 92c7 50b7
000001c0: e118 d9be c13f 55bd 3516 b2be a8d6 45be
000001d0: db18 76bb db98 2dbe 1f06 92bd bd82 80be
000001e0: f3c2 293e da35 5f3e aa16 51bd 6603 9f3d
000001f0: 55a2 b63e 2a55 413d f308 a9bc 2ef9 223e
-1.5931149e-37 0.24009237 -1.2860777e-37 0.2992843 -0.21963152 -6.391827e-05 -0.35788736 -0.000107154454
-0.13972642 -0.19514064 0.07830801 0.06694746 0.07774267 -0.19588937 -0.29701746 0.24164301
-0.2865165 0.07974528 0.27994317 0.014791822 0.09597002 0.048165154 -1.960017e-37 -0.378547
0.2772204 -0.042875767 0.06454216 0.03921088 0.07744911 0.37920785 -0.1561534 -0.35138324
-9.954364e-38 0.008041373 -0.19841072 0.2626089 0.08574654 -0.07370365 0.025415633 -0.054548845
-0.28941837 -0.059942745 0.082162514 -0.18969645 0.24719825 -0.039269097 0.20911977 -0.0394846
0.05570459 0.012985756 -0.061406583 0.3751334 -0.001949238 0.122355275 0.0063816826 0.08273138
0.092831746 0.25583443 0.2756289 -0.18686405 -0.037404723 -1.2794588e-37 0.17139462 -0.07240766
-0.0075922 0.23259638 0.35640672 0.18600895 0.27424714 0.059548955 -1.6116272e-37 0.004587111
0.3278316 -0.3118419 -0.0035192852 -1.0237189e-37 -0.14429331 0.29141703 0.078248076 0.0023378287
-0.19736435 0.06665691 -0.010031083 -0.11066328 -0.3086037 -0.2043639 -0.21832265 -1.3866959e-37
0.14198089 0.09942428 0.10699206 -0.24303354 -0.28117433 -0.042810503 0.0006901675 0.2871618
-6.6593027e-38 -0.17752743 0.3295162 -0.017745063 0.089884385 0.3713482 0.12245756 -1.2764797e-37
-2.0266484e-37 0.09634782 0.284503 -0.042391974 -0.051657118 -0.05630633 0.061758455 -1.2444232e-05
-0.42401794 -0.052062754 -0.34782568 -0.19320166 -0.0037551436 -0.16952841 -0.07130074 -0.25099745
0.16578273 0.21797886 -0.051047005 0.0776432 0.35670725 0.04720036 -0.02063415 0.15915367

ligandEncoder.convLayers.1.linear.weight f4 [128, 128]
00000000: 6d35 4bbe 7622 83bd 05f4 fabc 7de5 4bbe
00000010: 35ac e13e 95a1 4abd 4ad5 e1be 7b99 7cbd
00000020: fc18 873d 781c 41bd 4a90 ffbe 709c 31be
00000030: 602a 64bd 2374 2a3e 23fa 76be 6aa9 843e
00000040: a737 a3be 100b 053e 49f5 61be 1992 533b
00000050: 309d 8cbd 3362 36be 9d09 afbd ab4e 993e
00000060: f2ac a63e 8dd9 833d a9ef a63e 515b 22be
00000070: 5cdb 90bd a80f 1ebd 902d 92be e1a2 b93d
00000080: a8bd 0c3d 7481 03bc 2fad 45ba 7137 d53d
00000090: 9b3c 083e 6758 033e b1f6 cbbd ac25 d33e
000000a0: d3f6 62be f286 b73c a4c9 9f3d 62ee ca3e
000000b0: f440 3d3e 9808 40be e28f e13d e52a cdbe
000000c0: 9ba3 523e 048e 873d a305 753e cd22 69bc
000000d0: df3c 1fbf acf7 413e b493 12be 6f28 4ebd
000000e0: dbf7 993d 77b0 a03e d2a3 84be db26 363e
000000f0: 5ac7 94be 70ab b3bc 294c 203e 4855 90bd
00000100: 411e 21bc d02c 013e 45c9 71bd b6e7 e9be
00000110: 0849 b1be 0a7b dfbe ef14 5cbd e661 30bd
00000120: 9bb0 cfbe 6e28 3ebe 5a57 50bd faf7 0bbe
00000130: 34c9 be3e a855 d3bd 0a22 b13d 2ad8 4e3e
00000140: da9e b3be 3d90 463d 7a89 56bd 7879 c2be
00000150: cffb b33e cfc4 47be 7637 86be ee08 243c
00000160: 6b5c 94be 5832 f03d 2999 cbbe 7695 06be
00000170: 913b 84bd 90c8 17bf 608e 06be 9289 7f3e
00000180: 7fda 18bd 50d7 a5bd 5664 4d3e 95b7 9b3e
00000190: e814 b5bd 1178 d6be d025 06be 3d43 00bd
000001a0: 50d4 b33b 0d9f 19be 38bf 8b3e 7ad3 3d3e
000001b0: a039 eb3d d60b 05bd aa79 6ebe c2c2 8dbd
000001c0: 6699 8abe c214 e93d 121e 873e 8479 e0be
000001d0: 7844 c8bd 6986 9cbd ca97 d8be 0865 13be
000001e0: d0ae 323c 00e4 c43e edec 3c3d bb8f 8e3e
000001f0: 3221 79be f6a9 473e 9fba a13c 6d03 183e
00000200: 5cef 083e 891b be3e 499b 2f3e a23c dc3e
00000210: e75a 6bbd 9ab4 b03d 3bba 67bc cbdb 313e
00000220: 3290 3d3e 8a75 8b3e 37fd d83e 3f36 f0be
00000230: d314 9a3e c61f 96bd d426 38bf 8455 313e
00000240: dd41 17bf 4041 233e 0a4e 883e bde6 0dbd
00000250: edf6 5e3d 39f0 d83d 5fdd b13d 69ff d73d
00000260: a887 a53c d2ee 62bd 00a2 c33d 932b 5bbd
00000270: c3bf 963e a22b 563e 8019 a4be de40 3cbe
00000280: 29ae 783d 261a 3cbd f5f7 35be 0457 52be
00000290: d9e6 3e3e a1fd d7bd 3ebb e5bd 2a33 1cbd
000002a0: be99 5d3f b271 733b 13c8 bd3b 3f2f b63d
000002b0: ba37 b2bd fef8 d73d 3c3b e7bd 5604 613e
000002c0: d93b 27bd ba34 993e 6798 d5bd ce1f 233b
000002d0: 91bf b2bc 4ab6 1cbe 0fb2 ea3d 35ff 18bf
000002e0: 4421 4fbe fde2 f4bd 598c 7d3d 9a04 703e
000002f0: ee25 3dbe 06f9 df3d 33cc 92bd f6b8 de3d
00000300: a503 af3d 2639 73be 3e5a 5c3e 7be0 2d3f
00000310: 9fb2 8a3e c7b5 2fbf ee9a 9d3d c04b 0e3e
00000320: 16d0 adbd c491 cebe 874f 243e 5750 3b3e
00000330: 6bfa 913e 1c34 77be 9b1f 093e d982 d73d
00000340: 504d 903e 66eb d43d afc7 db3d 7215 88be
00000350: 6fbb 273d eba8 e3be c1a5 d73d 9b27 f73c
00000360: e1f3 eabe 9937 8c3b 04ee 1e3d 93e7 88be
00000370: 090e c7bd 1a1b 8bbd a19a 3f3e 0d65 8c3d
00000380: 2c79 9c3d 9779 8cbe 7503 063f 5561 c7bd
00000390: efba ec3d 259e 073e f8fc e8bd 337e 4f3b
000003a0: e47f df3d 02c6 9a3e f5a5 32be d7a6 ebbd
000003b0: 3fb6 223e b355 3ebf ad2f 14bf 852b fd3d
000003c0: b06d ffba f48b 063e 9eb2 3a3e b495 1bbf
000003d0: 888b 893d d758 86be e5b5 fdbe e909 37bf
000003e0: da1a b53d 0904 a73e 3e21 4abc 45a1 ab3d
000003f0: 72da fcbd b245 81be 327a f9be 582f 2e3e
-0.19844599 -0.06403057 -0.030633936 -0.19911762 0.44076696 -0.049470503 -0.4410804 -0.061669808
0.06596562 -0.04714629 -0.4991477 -0.17344832 -0.055704474 0.16645865 -0.24118857 0.25910503
-0.31878397 0.12992501 -0.22066225 0.0032283126 -0.06865919 -0.17810898 -0.085467555 0.2994283
0.32553822 0.06437979 0.3260472 -0.15855147 -0.070730895 -0.03858915 -0.28550386 0.0906427
0.034360558 -0.0080264695 -0.000754076 0.10410965 0.13304369 0.12826692 -0.09959162 0.4123968
-0.22164468 0.022403214 0.07802132 0.39634997 0.18481809 -0.18753278 0.110137716 -0.40071788
0.20570223 0.06618884 0.23927931 -0.014229489 -0.62202257 0.18942136 -0.14314157 -0.05033153
0.07517978 0.31384632 -0.25906235 0.1778826 -0.29058343 -0.021932334 0.15654053 -0.07047516
-0.009833873 0.12614751 -0.059029836 -0.45684594 -0.3462603 -0.4364856 -0.0537309 -0.043062113
-0.40564427 -0.1857011 -0.050864555 -0.13668814 0.3726288 -0.10319072 0.086490706 0.20199648
-0.35082132 0.0484774 -0.0523772 -0.37983298 0.35153052 -0.1950867 -0.26214188 0.010011895
-0.2897676 0.11728352 -0.3976529 -0.13142952 -0.06456674 -0.5929041 -0.13140249 0.24954823
-0.03731775 -0.08097708 0.20057806 0.304135 -0.08841878 -0.41888478 -0.13100362 -0.031314123
0.005487956 -0.1500208 0.27294326 0.18537703 0.114856005 -0.03248199 -0.23288599 -0.06921913
-0.2707016 0.11380912 0.2639013 -0.4384271 -0.097786844 -0.07642824 -0.42303306 -0.14394009
0.010905936 0.384552 0.046124388 0.27844033 -0.2432907 0.19498429 0.019742308 0.14845057
0.13372558 0.37130383 0.1714908 0.4301501 -0.057459738 0.08628197 -0.014143522 0.17369
0.18512037 0.27238113 0.42380688 -0.46916386 0.30094013 -0.07330279 -0.71934247 0.17317778
-0.59084874 0.1594286 0.2662204 -0.034643877 0.054434706 0.10592694 0.08684801 0.105467625
0.020206288 -0.055403538 0.095523834 -0.053508352 0.29443178 0.20915082 -0.32050705 -0.1838412
0.060712967 -0.045923375 -0.1777037 -0.20541006 0.18642749 -0.10546423 -0.11217354 -0.03813473
0.86562717 0.0037146625 0.005791673 0.0889573 -0.08702035 0.10545538 -0.11290595 0.2197431
-0.04082856 0.2992304 -0.10429459 0.0024890783 -0.021819862 -0.15303913 0.11459743 -0.59764415
-0.20227534 -0.11957357 0.061901424 0.23439255 -0.184715 0.10936169 -0.07167854 0.10875122
0.08545617 -0.23752269 0.215188 0.67920655 0.27089402 -0.68636745 0.07695566 0.13896084
-0.08486955 -0.40345585 0.16045962 0.18292366 0.28511366 -0.24140972 0.13390963 0.10523004
0.28183985 0.10396461 0.10731446 -0.2657886 0.040950235 -0.44464812 0.10529662 0.030170253
-0.4588919 0.0042790887 0.03880121 -0.26739177 -0.09719474 -0.067922786 0.1871133 0.068552114
0.07640299 -0.27436516 0.52349025 -0.097353615 0.11559092 0.13243921 -0.11376375 0.0031660914
0.10913065 0.30229193 -0.1744612 -0.115064315 0.15889834 -0.74349517 -0.5788525 0.12361816
-0.0019487645 0.13139325 0.182322 -0.60775304 0.067160666 -0.26239654 -0.49552837 -0.71499497
0.08843012 0.32620266 -0.012337027 0.08380369 -0.12346353 -0.25248486 -0.4872604 0.17010248

ligandEncoder.convLayers.1.linear.bias f4 [128]
00000000: 7470 a5bd c10f c3bc 2c20 8ebd 4a5a b0be
00000010: 1172 44be 2713 6dbe 5ccb f1bd 6b2e ccbc
00000020: 393f 49bd 5387 123e cf86 63be db30 c6bd
00000030: ac0e 66bc 8cec 03bd 69c9 e6bd f8a3 483d
00000040: 0b32 32be 65c7 15bd 3d5b f5bd 03ad 093d
00000050: 52f9 1b3e 4dc3 16be 6e7f e6ba 48d2 5c3e
00000060: b5e2 03be 91c8 ddbb c4b6 55be e587 c4bd
00000070: e7dd 70bd 6633 60be c255 babd 7401 4cbe
00000080: a6dd 2bbe 7a41 afbd 8b15 f2bd c662 babc
00000090: 9eec 5ebe b9d5 27bc 0434 e4bd c01e f5bd
000000a0: 75a7 24be 6451 ffbd 21eb 29be 6378 ecbd
000000b0: 6a37 27be 860b f8bd 2e3b d5bd 9672 15be
000000c0: 8a9f 0bbe 3e56 91bd 5914 98be d4f5 df3d
000000d0: c7b9 ccbd b5e0 b2bd adf3 15be 5821 fabd
000000e0: be68 3b3c 56dd a4bc 38d5 abbd 4f2f 62be
000000f0: 87fd 23be b575 21bd 4a67 edbd 5006 37be
00000100: 2347 0fbe 2469 a9bd 0826 b5bd 84de 06bd
00000110: 1bba 7ebe 31ce 00be 18e3 393d c23b 02be
00000120: 8cc0 c3bd f4a4 f9bd fe06 23bd bb16 abbc
00000130: 1f57 f2bd 38d5 d1bd e289 27bd 8042 23be
00000140: 5766 9bbd 63b2 bcbd 4b19 fdbd eba4 6dbc
00000150: d0a8 f3bc da5c 0dbe d0aa 9abd 5846 873d
00000160: 3878 0e3e fa22 39be f3cc 2a3d a9c5 1d3d
00000170: 6609 9f3d 9a19 a1bd df26 b2bd 38e9 fcbd
00000180: e073 eabc cb94 0ebe 1ba2 9fbd ce27 343e
00000190: ff8c 69be 7826 87bd 3dd5 d13c c0f0 27bd
000001a0: 191b 3fbe 8e4e 2dbe 8260 a03d 5560 f0bd
000001b0: bcc3 89bd f4a6 73be e71e c7bd 9d00 a2bd
000001c0: 7437 73bd 4b8a fabd 50bb 0dbe f347 eb3d
000001d0: d91b a9bd e5a0 3ebd aaea 02be ef8f e0bc
000001e0: e0ca e3bd dda9 c8bd 1221 9ebe 00c5 aa3c
000001f0: 564c eebc fe29 84bd 4a8e 8dbd 3784 febc
-0.08078089 -0.023811223 -0.0693973 -0.34443885 -0.19184138 -0.23151837 -0.11806366 -0.024924478
-0.04913256 0.14309435 -0.22219394 -0.09677287 -0.014041584 -0.03220801 -0.11268885 0.048984498
-0.17401902 -0.03656711 -0.11980293 0.033612262 0.15231827 -0.14722939 -0.0017585584 0.21564591
-0.1287945 -0.006768294 -0.20870501 -0.09596232 -0.058805373 -0.21894607 -0.09098388 -0.1992243
-0.16783771 -0.085574105 -0.11820515 -0.022752177 -0.2176995 -0.010243827 -0.11142734 -0.11968756
-0.16079505 -0.12466696 -0.16593601 -0.115463994 -0.16329733 -0.12111573 -0.10411678 -0.14594492
-0.13635078 -0.070965275 -0.29703024 0.1093556 -0.09996372 -0.08734266 -0.14643736 -0.12213391
0.011438547 -0.020125072 -0.083902776 -0.2208836 -0.16014682 -0.039418895 -0.115919665 -0.17873502
-0.1399198 -0.08272007 -0.088451445 -0.03292705 -0.24875681 -0.12578656 0.04538259 -0.12718108
-0.0955821 -0.121896654 -0.03980159 -0.020884862 -0.11833023 -0.102457464 -0.04090298 -0.15943336
-0.07587879 -0.09213712 -0.1235834 -0.014504652 -0.029743582 -0.13804951 -0.07552111 0.06605214
0.13913047 -0.18079749 0.04169936 0.03851858 0.077654645 -0.07866211 -0.0869882 -0.123491704
-0.028619707 -0.13923948 -0.07794591 0.1759331 -0.22807692 -0.06599134 0.025614375 -0.04100108
-0.1866268 -0.16924497 0.078309074 -0.11737124 -0.067267865 -0.23794156 -0.09722691 -0.07910273
-0.059379056 -0.122334085 -0.13840985 0.114883326 -0.08257265 -0.04654016 -0.1278483 -0.027412383
-0.1112268 -0.09798024 -0.30884606 0.02084589 -0.029089134 -0.06453322 -0.06911905 -0.031068904

ligandEncoder.convLayers.1.edgeLinear.weight f4 [128, 6]
00000000: d98d b2be e943 bc3d 24ad fbbd 20bd 753e
00000010: 07c4 f1be 6867 3dbe e917 9b3d c8eb a0be
00000020: 249d a2bc 5a60 c53e 33be 223d 9da9 b33d
00000030: 148a 17be 50dc cabe 4dcb 9a3d 7463 923e
00000040: f30d 58be c51a 38be c7db d13d 8746 95be
00000050: cc9c 82bd 6f9c 27be 15ba 0fbf 9508 8fbe
00000060: 46ff 25bd 4560 47be ebb5 2cbd 4b52 b33d
00000070: 4072 60be 6436 1d3e b163 01be 9321 173d
00000080: d074 af3c 5da4 d5bd 1e5d 9ebd 1da3 ceba
00000090: 8256 973c 9770 fb3d 3fa9 443d ad8d a53d
000000a0: c47e 7a3e 695a 9d3d ca56 d9ba abf2 66bd
000000b0: c4d5 e7bc 38cf 89bd 98b9 403e 70fd e1be
000000c0: 77c5 55bd fd3d 7ebc 6139 093d abd0 833d
000000d0: 7c0e 4e3d b927 b3bd 3c1e c33e 4c1a 4bb9
000000e0: 5137 633d d084 9d3d ba6c 003f 54dd b5bd
000000f0: dde6 3cbe 523d b2bd 571c cc3c 61ac 03bd
00000100: 8aee a9bd 15fc 0abe 069f 85bd 8988 043e
00000110: 9357 12bd 4e6e fabd 14c2 8e3d 33f5 f0bb
00000120: 15eb cd3c 5d87 2bbe 3014 243e 7a41 49be
00000130: bbe2 923d c369 d7bb 21a4 533e a51d d7bd
00000140: e138 90b9 38c3 4abe 2063 8bbd fc26 73be
00000150: bced 4bbe 7115 5f3e 577e 3abe b40f 8cbd
00000160: 822d a63d 5a93 023e 5271 343e d75e 883d
00000170: 666e 2d39 2e75 45bd 00f0 2f3e e4b0 3c3d
00000180: 32a2 b73d 44ae 5b3d 8915 69bd ba07 82bd
00000190: f5ae 18bf 01e0 f43d 83fa bc3e f48c c23b
000001a0: eeb2 423d f5eb bcbe f1f4 003d a08a c83e
000001b0: 129b 7abe 3c13 e93d 2162 863d c894 24bc
000001c0: dd4c a6bc 4e54 9abe 4130 2cbe 6924 2fbe
000001d0: 272a 4abd 325f 7e3e 2da4 42bd 1c6e febb
000001e0: d70c 753e 2d06 1fbe e70b 5b3d f04a 743e
000001f0: 23d2 bc3e f5f2 4cbe d989 a2be 65a3 cebd
00000200: 2404 5ab9 fc2c dabc 1f1a ecbe 2130 103c
00000210: 6765 dabe 2fc6 b43b 5ce7 12be 5580 1a3f
00000220: b2d1 503e 8a40 fc3e 2ab1 41be 38ad 523e
00000230: 1ecb c2bd b75f 223f 5e43 8c3c 9ca1 d0bc
00000240: 6dc7 793e 5968 aa3c 6881 973d 6156 39be
00000250: 436b a5be ad59 773d 4a54 c73d 7a2c 31be
00000260: 2562 f4bb 6f2a ad3c b7e7 953d de4d e2bd
00000270: b27e 63be 4598 b5bc 873c a63c 558f 99bd
00000280: 2d13 50be 8496 63be d8b2 c7be b3b5 79bd
00000290: 59a8 7c3c 7767 9d3e 4cd1 90bc a1d8 953e
000002a0: 5f2f a5bc b186 55bd 1f93 1e3d 7ad3 a2bc
000002b0: e769 5d3c 48c6 b7bd bd66 72be 9da1 18be
000002c0: 8f5c b83c 8822 b33c 276b 40be 9a46 1bbe
000002d0: 2c67 c9bc 9531 cd3d 0cc0 cabc 9205 98be
000002e0: 0ca5 bb3d 219d 7dbd 256d 40be 474c cfbe
000002f0: fe38 33bd b26a 513e 43b3 5bbe fd37 e9bd
00000300: 54ac ddbd f501 90bd 7d47 26bc 1a2e 64bd
00000310: 606e 7fbe 0a29 25be 702f 00bf 658b 09be
00000320: f45a 883c b5fd 253f 5887 763e b46b 153f
00000330: 8196 9a3d 15df 8c3d e1bd 5f3d 700f d4be
00000340: 7d3d 81be 1b53 533e b8d9 ff3c f059 373d
00000350: 7b62 55bb f962 cf3d a3d4 853d 4aba 0d3e
00000360: 9743 d4be 62d6 a03d 40a1 c63d a2db 89bd
00000370: c1fd c9bd 993f 73be 7c24 cb3e b50f b03d
00000380: 039a 5d3d 5653 7dbe f00e 2abe f83f de3e
00000390: 414d 52bc 0422 3b3e 3f16 1b3e 6646 9ebd
000003a0: 7a8d edbe 903b 133e 7ecb 87be ccbc b03a
000003b0: 68f6 d13d 53f7 8abc 782a 9dbd 830c 80bd
000003c0: e5c7 72be dbbb 773d 47e8 a4bc 77d7 5f3d
000003d0: 4784 053e 536e f0be 0383 633d 40f1 debb
000003e0: 31a0 a2bd 98fd b43a e689 b3be 9b3f 913e
000003f0: e8cf a4be 3a17 babc 2782 723d 2176 f8bd
-0.34873846 0.0919264 -0.12288883 0.23997927 -0.4721987 -0.18496478 0.0757292 -0.31429887
-0.019850321 0.38550073 0.03973217 0.087725855 -0.14798766 -0.3962121 0.07558308 0.28591502
-0.21099071 -0.17978962 0.10246997 -0.2915537 -0.06377563 -0.16368268 -0.56143314 -0.27936235
-0.04052665 -0.19470318 -0.042165678 0.087559305 -0.21918583 0.1535278 -0.12635686 0.036897253
0.021418005 -0.104317404 -0.077326044 -0.0015765164 0.018473867 0.12277334 0.04801297 0.08083663
0.2446242 0.0768326 -0.0016581651 -0.05638377 -0.028300174 -0.06728977 0.18820798 -0.4413867
-0.05219027 -0.015517709 0.033501986 0.06436285 0.050306782 -0.08747811 0.38109004 -0.00019369385
0.055472676 0.076913476 0.50165904 -0.088801056 -0.18447442 -0.08703102 0.024915857 -0.032146815
-0.08297451 -0.13572724 -0.06524472 0.12942709 -0.03572805 -0.1222807 0.06970611 -0.007353449
0.02513651 -0.16750856 0.16023326 -0.19653884 0.07172152 -0.006573887 0.20668079 -0.10503701
-0.00027508198 -0.19801033 -0.06806016 -0.2374534 -0.19914907 0.21785523 -0.18212257 -0.06838933
0.08114149 0.12751523 0.17621353 0.06658714 0.00016539692 -0.048207454 0.17181396 0.046067134
0.08966483 0.05363299 -0.056905303 -0.0634913 -0.59641963 0.11956788 0.36909875 0.005937213
0.047533922 -0.3689877 0.031483594 0.39168262 -0.24473217 0.11380622 0.06561685 -0.010045238
-0.020300323 -0.30142444 -0.16815282 -0.17103733 -0.049356606 0.24841002 -0.04751985 -0.007764591
0.2393068 -0.155297 0.053478148 0.23856711 0.36879072 -0.20014556 -0.31745794 -0.10089759
-0.00020791643 -0.026632778 -0.4611368 0.008800537 -0.4265549 0.0055167894 -0.14346069 0.6035207
0.20392492 0.4926799 -0.18915239 0.2057389 -0.09511398 0.634273 0.017121967 -0.025467686
0.24392481 0.02080171 0.07397729 -0.18099357 -0.32308397 0.060388256 0.09732874 -0.17302123
-0.007457989 0.021138398 0.07319587 -0.11050008 -0.22216299 -0.022167334 0.020292534 -0.074980415
-0.20319815 -0.22225386 -0.39003634 -0.060964298 0.015420997 0.30743 -0.017677926 0.29266837
-0.02016419 -0.052130405 0.038714524 -0.01987623 0.013514019 -0.08973366 -0.23672004 -0.149054
0.022505073 0.021867052 -0.18790875 -0.15163651 -0.024585329 0.10019223 -0.024749778 -0.2969175
0.091623396 -0.061917428 -0.18791635 -0.40487882 -0.043755524 0.20450857 -0.21455102 -0.11387632
-0.108238846 -0.07031623 -0.01014888 -0.05570803 -0.24944448 -0.16128936 -0.50072384 -0.13432081
0.016644932 0.6484025 0.24075067 0.58367467 0.075482376 0.06878487 0.054624442 -0.41418028
-0.25242224 0.20637171 0.031231746 0.044763505 -0.003255992 0.101262994 0.06534698 0.13840595
-0.41457817 0.0785339 0.09698725 -0.06731345 -0.09862853 -0.2375473 0.39676273 0.08596746
0.054101955 -0.24738821 -0.1660726 0.4340818 -0.012835802 0.18274695 0.15145205 -0.07728271
-0.46397 0.1437819 -0.2652244 0.0013484 0.102520764 -0.016963637 -0.07674116 -0.062523864
-0.23709066 0.060481887 -0.02013029 0.054648843 0.13038741 -0.4695917 0.055544864 -0.0068036616
-0.0794071 0.0013808487 -0.35066146 0.2836884 -0.3218987 -0.022716153 0.059206154 -0.12131906

ligandEncoder.convLayers.1.edgeLinear.bias f4 [128]
00000000: 0a39 6dbc d4b8 8cbe 46ec b5bd f0fe b2bd
00000010: c897 8abe 5f5e 87be f2d1 62be 7ba4 3fbd
00000020: 1bd9 48bd 94ad 833d 6531 d4bd 24c5 b6bd
00000030: 9bad 423e b7c0 09bd 1c8c 6dbd bbe5 3f3c
00000040: a254 3f3e 29ee d6bd 96a9 4b3d 19de aabe
00000050: fced c63d e806 8bbe c4a8 85bd 14d5 a6bd
00000060: 36d4 4fbe fecb 853c 84da 6cbe b727 46be
00000070: 25a0 96bd cabf 9fbe 3d5a b0bd 3709 a2be
00000080: 386c 36be f622 febd d0ab 863c 83ec 14be
00000090: d358 40be 03a8 b93e 2bfd 7bbe 06f7 4abd
000000a0: 22ef 643d 3f77 a73c 1d8a 033d ca3e 6ebc
000000b0: 168e ebbd c2b7 6abd 07b7 803e ddbc 38be
000000c0: d595 0ebe 8f86 ad3d c21c 14bd 5c09 debd
000000d0: 7add debd 9d86 2c3e d5f9 bdbd aaa6 0ebd
000000e0: 85a5 933b ed7b 15be 0842 3d3e 8ef1 cbbe
000000f0: 25e9 4fbe ab7b e13d 501d 80bd 1379 25be
00000100: dcf7 39be fa5a 283e 2164 a0bd 2b0d 78bd
00000110: c2d1 81be 0eea b5bd 07d5 a3bc db08 cd3d
00000120: 2e1c 1abe b491 493e f3d7 053e ff87 ca3d
00000130: 4b77 c0be ff52 2dbc 89c2 a3be d33c 2dbe
00000140: 9b36 a6bd f90e 683e 7d05 00be 273c 90bd
00000150: 9c06 16bd 0d84 a13b d584 06bd eefb 923e
00000160: 220c aa3e f1ad 19bd 661d fdbc 89d4 ccbd
00000170: dfb1 1b3e 7fea 0dbe 769c 943c 640b 6c3d
00000180: 1cb9 05be 5035 04be 7298 32bd 48e3 df3d
00000190: 8b52 f93a fdf7 1d3e 7f98 a33c 82db 1bbc
000001a0: 9ec8 22be 18c3 a03c f0ef 893d 4704 70be
000001b0: 873c 043e 4dd2 85be 765c abbe bc53 af3d
000001c0: 7cc0 05bd 5e4b bcbe acb4 4abe 49a3 8dbd
000001d0: 7e0e 173e ef77 2abe 3906 90bd ce32 84be
000001e0: 92fe f4bd 1937 5abe 8fcb d1be 9252 933e
000001f0: ecc9 62bc cb03 dabb cba1 94bd 8800 4fbd
-0.014478931 -0.27484763 -0.08882956 -0.08740032 -0.27068925 -0.26439187 -0.221504 -0.04678772
-0.049035173 0.06429592 -0.10360984 -0.0892432 0.19011538 -0.033631053 -0.057994947 0.011712487
0.18684629 -0.10494644 0.049722277 -0.33372572 0.09713361 -0.27153707 -0.0652633 -0.0814611
-0.20295796 0.016332623 -0.23130232 -0.19351088 -0.07354764 -0.3120101 -0.086109616 -0.31647655
-0.1781472 -0.12409012 0.016439348 -0.14543347 -0.18783884 0.36260995 -0.24608295 -0.049551986
0.055892117 0.020442603 0.032114137 -0.014541337 -0.1150171 -0.05730415 0.2513964 -0.18040796
-0.13924344 0.08472931 -0.036160238 -0.10841629 -0.10882087 0.16848226 -0.09276167 -0.034826912
0.0045058155 -0.14598055 0.1848222 -0.3983273 -0.20303781 0.11009916 -0.06255591 -0.16159467
-0.18160957 0.16440955 -0.07831598 -0.060559433 -0.25355345 -0.08882533 -0.01999904 0.10011455
-0.15049812 0.19684488 0.1307066 0.098892204 -0.37591013 -0.01057887 -0.31984356 -0.16917734
-0.08115884 0.22661962 -0.12502094 -0.07042723 -0.036627397 0.0049290718 -0.032841522 0.28707832
0.33212382 -0.0375194 -0.030897807 -0.10001475 0.15204571 -0.13858984 0.018141013 0.05762805
-0.13058895 -0.12910962 -0.043602414 0.10932022 0.0019021792 0.15426631 0.019970177 -0.009512784
-0.15896842 0.019624278 0.067352176 -0.23439132 0.12913714 -0.2613701 -0.3346898 0.08560893
-0.03265427 -0.3677625 -0.19795483 -0.0691591 0.14751622 -0.16647314 -0.07032437 -0.2582001
-0.11962618 -0.2131008 -0.40975615 0.28773934 -0.013842087 -0.006653284 -0.07257422 -0.050537616

ligandEncoder.convLayers.2.linear.weight f4 [128, 128]
00000000: bb5e cc3e e58a b53a 9107 8d3e 05a0 2e3e
00000010: 4d91 c63e ac55 503d 5381 1f3e 7a67 d2bd
00000020: 9510 94bd 090a 2e3e b3a2 17bd ee44 58be
00000030: 1300 053e 03fc ac3d 23b7 5bbe 2b9d b53d
00000040: 20be 7ebe 71cf 13bd 365c 5d3e 06a1 613d
00000050: 53db 51be 03be 10be 5e88 41be 54df 42be
00000060: d028 4cbe 507f d4bd 2bf6 713d f463 033e
00000070: 347c 903c e502 3a3e c715 e2bd 37ff 6e3e
00000080: 4c6a 8dbd 7553 473d 0b4f 88ba c195 f4bc
00000090: 4814 a23d b9ab 6abe b677 5bbe f559 a03e
000000a0: 3434 603e 80f5 d9bd f5a5 a93e c2f9 953e
000000b0: de29 903e 284e 403d 9440 f4bd a521 c4be
000000c0: 00db 0e3e 3499 a4be 94ee fd3d a00b 133e
000000d0: 421f b9be 53e7 c23d 9ec1 1bbd b209 48be
000000e0: 28a2 b93e 0288 43bd a8b0 14be 04c6 6f3e
000000f0: 79be 97be 1c56 993e a096 813e 4be9 1cbe
00000100: 9f33 143d d78a d83e 09e4 2abe 5c31 5a3d
00000110: 0814 443c 7523 9ebe f744 e1be 6ec3 733e
00000120: 6c87 e83d 6d9b a6be 91ad 603d ba6a 6e3e
00000130: 8494 d83c d382 04be ec4f 383e 4d35 8c3e
00000140: 327c 00be d619 de3d 15fe 1f3d 7feb e9bc
00000150: 3318 a13e bdf3 0cbe 5803 1c3d 4cba f2bd
00000160: ab9a 88be 5942 8e3e 6bc9 24be e47f 6ebe
00000170: 14a3 50bc 3820 d0be 8c78 883e 987e 093d
00000180: d051 4f3d 7abd 28be c3d4 7ebd 378b b33d
00000190: 7813 983d 43a4 b8be bd0d 18be 89d9 9e3c
000001a0: 8ac9 283e 3faf f4bd 30aa 9d3d 3587 02be
000001b0: 5469 3bbe a985 453e 9861 4e3e 66c9 a6bc
000001c0: 0816 7abe 81ca 8abb 8b09 f63c 4bd1 c0be
000001d0: e85c 223e fefd be3e 650b 46be 4a5c fa3c
000001e0: 4e69 853e 8961 fd3e 2611 24be b0b4 4abd
000001f0: 2070 d8be 300a 8abd 8f56 d5bd 6683 3cbe
00000200: 54c4 a0bd e734 8c3d 25ba 8abe 0391 c0bd
00000210: c99a c63d 1152 263e a910 acbe 1dc6 8b3a
00000220: 6239 babb 1de3 433e 561a 3b3e e85f 45be
00000230: 323f 413e 995b 4bbd ee72 45bf 9d32 af3e
00000240: 74ea 27bf b9cc 10bc 3f25 813e e603 063e
00000250: 1432 963e db88 643e 4225 6cbe 6d69 1b3e
00000260: 6105 4bbe 8412 d1bc d31e 1a3c 86b1 233d
00000270: 9abf 4d3e d211 a03e 1953 d5bd 3c66 073e
00000280: 060d 003e 253b 373e 5781 7f3c e7e0 1abe
00000290: 485e 143e 0fb1 8fbc 2cc9 8abe 79b2 f5bb
000002a0: 713b 3e3e 5156 28be 4b49 1f3e 4ce3 913e
000002b0: e5d1 833e 4628 663e 19cb 0dbe 5586 c9bd
000002c0: 12db 0dbe b36d 1bbe 7c48 833d 2091 803e
000002d0: 5f1f 67be 4fd1 96bb e639 9c3d 8d06 3ebf
000002e0: 496d 073d 0279 e2bd 42cf 06bc 2169 843e
000002f0: 3793 73be fdf3 89bd 06c4 debb cda2 313e
00000300: ba23 b13c 2d29 9c3e af6b 9b3d e48d 193f
00000310: 8bd7 083d 46df adbe 1d19 753d a39c ccbe
00000320: 13d0 8d3e 909e 90be f471 563e a90d cebd
00000330: 9020 4b3d 6a55 71be d7c3 453e 9fe9 cf3e
00000340: 4e14 04bd b805 063f 5b19 37be 7e25 4c3e
00000350: ca48 b73d ad09 26be c522 d73d fc29 febd
00000360: 1917 8f3d f1a8 153d 3549 f4bc e089 ef3d
00000370: 0c96 703e 7047 68bd bb77 043c 6183 1f3c
00000380: 41d2 bc3d eee9 b4be 6b45 9c3d e808 c2bd
00000390: ab8c 91bd 9d58 ae3b 043a 813e 418e 0ebe
000003a0: c55d a6be f448 c33d a156 71be 1e89 92be
000003b0: 5fa3 19be bd61 36be 19ea a9be 9cc2 b6be
000003c0: 15a1 8bbe 47cf 05be 03f4 90be ac63 30bd
000003d0: 018e cfbd 7328 21be 728e acbe b29f d6be
000003e0: 6039 a43e 4f10 5c3e 3575 e4be b3ab ddbc
000003f0: 6b43 bf3a 4d4e c2be ec4e 8ebe 10ed 643d
0.39916024 0.0013850598 0.27544835 0.1705323 0.3878273 0.050862953 0.15576677 -0.10273643
-0.07229725 0.16996016 -0.037020396 -0.21120045 0.1298831 0.08446505 -0.2145658 0.08867868
-0.24877214 -0.036086503 0.21617207 0.055085205 -0.20493822 -0.14134984 -0.18899676 -0.19030505
-0.19937444 -0.103758454 0.059072655 0.12831098 0.01763735 0.18165167 -0.1103931 0.23339544
-0.0690504 0.048663575 -0.0010399533 -0.029856564 0.079140246 -0.2291707 -0.21432385 0.31318632
0.21894914 -0.106425285 0.33134428 0.29292113 0.28156942 0.046949536 -0.1192638 -0.3830692
0.1395073 -0.32148135 0.12399021 0.14359903 -0.3615666 0.09516778 -0.038026445 -0.19534948
0.36256528 -0.04773713 -0.14520514 0.2341538 -0.29637507 0.2994851 0.2531023 -0.15323369
0.036182042 0.42293426 -0.16688551 0.05326973 0.011967666 -0.30886427 -0.43997929 0.2380502
0.11353955 -0.32540455 0.054853026 0.232829 0.026438005 -0.1294053 0.17999238 0.27384415
-0.12547377 0.108447716 0.03906067 -0.028554676 0.31463775 -0.13764854 0.038089126 -0.118519396
-0.26680502 0.27784994 -0.1609246 -0.23290974 -0.012734193 -0.4064958 0.2665447 0.033567995
0.05061513 -0.1647853 -0.062214624 0.087667875 0.07425588 -0.36062822 -0.1484899 0.019390838
0.16483131 -0.11947488 0.07698476 -0.1274689 -0.18301898 0.19289269 0.20154417 -0.020359706
-0.24422467 -0.004235566 0.030033847 -0.37659678 0.15855753 0.37303156 -0.19340284 0.030561585
0.26056904 0.49488476 -0.16022167 -0.049488723 -0.42273045 -0.06740224 -0.104169 -0.184095
-0.078499466 0.06846028 -0.27095142 -0.09402659 0.09697492 0.16242243 -0.3360646 0.0010663901
-0.00568311 0.19129606 0.18271765 -0.19274867 0.18871763 -0.0496479 -0.77128494 0.34218302
-0.6559212 -0.008837872 0.2522373 0.13087425 0.29335082 0.22317831 -0.23061088 0.15176935
-0.1982627 -0.025521524 0.009406763 0.03996422 0.20092621 0.31263596 -0.1041624 0.13222593
0.12504968 0.17893656 0.015594802 -0.15124856 0.1448909 -0.017540483 -0.27106607 -0.0074980822
0.18577363 -0.16439177 0.15555303 0.28493726 0.25746074 0.224763 -0.13847007 -0.09840075
-0.138531 -0.15178566 0.0641031 0.25110722 -0.22570561 -0.0046025882 0.07628231 -0.74228746
0.033063207 -0.11058237 -0.008228125 0.25861457 -0.23786627 -0.0673599 -0.00679827 0.1734726
0.021623481 0.30500165 0.075888984 0.5998213 0.033408683 -0.33959407 0.059838403 -0.39963254
0.2769781 -0.28245974 0.20941907 -0.10061199 0.0495916 -0.23567739 0.19312988 0.40607926
-0.032245927 0.52352476 -0.17880766 0.19936177 0.0894943 -0.16214629 0.10504679 -0.12410352
0.069868274 0.03653807 -0.029820064 0.116962194 0.23494738 -0.056708753 0.008085187 0.009735913
0.0921979 -0.35334724 0.07630428 -0.09474355 -0.071069084 0.005320622 0.25239575 -0.13921453
-0.32493415 0.09535399 -0.23568203 -0.28620237 -0.15003727 -0.17810722 -0.33186415 -0.3569535
-0.27271333 -0.13067351 -0.28311166 -0.043063805 -0.10134507 -0.15738086 -0.33702427 -0.41918713
0.32075024 0.21490596 -0.44620672 -0.027059412 0.0014592236 -0.37950364 -0.27794588 0.055890143

ligandEncoder.convLayers.2.linear.bias f4 [128]
00000000: e505 2cbd 96d8 40bd 107f eabd add5 f3bd
00000010: ac1b 5abe 27c1 fbbd 7f1c 2dbe 9e5c 10be
00000020: 9280 f0bc 7fda 37be f434 6ebe 23c8 1c3e
00000030: 079b 45be 4576 1fbe 9739 b5bd 17f0 7ebe
00000040: 381a 0c3b 8ba5 ecbd e820 31be 0e9b fcbd
00000050: d399 0abe ffa0 61be 1010 04bd 8e26 24bd
00000060: 27a6 213d b4f5 983d 6213 6fbd 7eb4 41be
00000070: 0739 b8bc c2e6 61be 526c 6cbe 022b 6ebc
00000080: 465d a3b9 8312 60bd f097 a8bc 633c d2bd
00000090: b3ec d2bd bf44 cebd b797 883d c02d 88be
000000a0: 4ff7 51be b576 52be 2718 b6bc fca7 b5be
000000b0: f03a 52bd 5c64 89bd e57d 5ebe 12d7 b3bd
000000c0: 5655 853d 6b54 26bd e22c 3fbe afd5 28be
000000d0: 2f29 9cbd 9be5 ddbd c6c4 38bd 3065 46be
000000e0: 7b40 cabd c9e5 3fbe a2e4 f8bd 39c5 c3bd
000000f0: d22d 08be e128 b6bd 0569 36be 22c7 9abe
00000100: 4c11 e0bd af48 92bd 94d3 f2bd 8152 0dbe
00000110: 9b28 e0bd ab66 24be 76d8 afbd a008 80bd
00000120: ef30 08be a458 10be 9d7d 37be cac1 e1bd
00000130: 9a2c e93d c410 33bd 22fa a7bd b084 38be
00000140: 8553 3bbd 7e81 5f3c 263d 003c b94e febd
00000150: 5100 ebbd 35d1 e0bd 6d39 663d 1e2b 15be
00000160: 1ffe 43be 1b4f 2bbd c763 abbd 9507 06be
00000170: f1ca 20be ea22 c3bd f21e 063d eb62 39bd
00000180: 0ff0 aebd 859e 813c f4bd fcbd e25e 38be
00000190: 15b9 13bd 74a7 1abe ca03 313c 7a18 62bd
000001a0: 7e85 423b 053d 1bbe b6fe 1ebe 78f2 943d
000001b0: 2f8f 1dbe 609c 2abe 18eb 7ebd 9bcf 0fbd
000001c0: 21e9 1cbd 3dff 0dbe 90b7 8cbd acf8 95bd
000001d0: d196 42bb 89e9 b3bd 8072 5cbe 6f91 c1bd
000001e0: f586 49be f120 793d 50d8 813b d03e 4f3b
000001f0: 5831 48bd b362 2ebe 7a4f 63be 921a 083d
-0.04199781 -0.047081552 -0.114500165 -0.1190599 -0.21299618 -0.122927 -0.16905402 -0.1409783
-0.029358182 -0.17954443 -0.23262388 0.15310721 -0.1929742 -0.1557246 -0.08848875 -0.24896275
0.0021377932 -0.11555012 -0.17297709 -0.12334262 -0.13535242 -0.22034071 -0.03224188 -0.04007583
0.039465096 0.07468739 -0.058368094 -0.18916509 -0.02248813 -0.22060683 -0.23088196 -0.014536621
-0.00031159277 -0.054705154 -0.020580262 -0.10265424 -0.10299053 -0.10071706 0.06669562 -0.26597404
-0.20504497 -0.20553096 -0.022228314 -0.35479724 -0.05132574 -0.06708595 -0.21727712 -0.08781256
0.06510417 -0.04060785 -0.18669465 -0.16487764 -0.07625043 -0.108348094 -0.045109533 -0.19374537
-0.0987558 -0.1874 -0.12152983 -0.095591016 -0.13298729 -0.08894516 -0.178135 -0.3023005
-0.10940799 -0.071427695 -0.118567616 -0.13801004 -0.10945245 -0.1605479 -0.085862085 -0.06251645
-0.13299917 -0.14096314 -0.17919011 -0.110232905 0.1138546 -0.04371716 -0.08202006 -0.18019366
-0.045733947 0.013641713 0.007827079 -0.12417359 -0.1147467 -0.10977403 0.05620711 -0.14567229
-0.19139908 -0.041823488 -0.083686404 -0.1308883 -0.15702416 -0.09528144 0.032744355 -0.04526035
-0.08541881 0.015822658 -0.12340918 -0.18004945 -0.03606518 -0.15102941 0.010804126 -0.055199124
0.0029681618 -0.15159996 -0.15526852 0.0727281 -0.15386651 -0.16661215 -0.06223592 -0.035110097
-0.038308267 -0.13866897 -0.06870949 -0.07322821 -0.0029691944 -0.08784778 -0.21528053 -0.094515674
-0.19680388 0.06082243 0.003962554 0.0031623133 -0.048875183 -0.17029838 -0.22198287 0.033228464
